bayesian_cnn.tflite (tflite, 836092 bytes, 24 tensors)

sequential_1/dense_reparameterization/234778 f4 [10]
-0.037676957 -0.161247 -0.17894556 0.03763407 0.039570123 0.1043333 0.052434254 -0.050715715
0.03539547 -0.06815621
00000000: 2753 1abd ef1d 25be 813d 37be 2f26 1a3d
00000010: 4814 223d b2ac d53d 4dc5 563d 48bb 4fbd
00000020: d7fa 103d 7c95 8bbd

sequential_1/dense_reparameterization/234774 f4 [128, 10]
0.06566326 0.35366952 0.047797315 0.01134535 -0.07691303 0.001041417 0.2096075 -0.28663927
-0.0972808 -0.13369948 0.03829147 0.044941958 0.2995889 0.07908751 0.007335053 0.096933596
0.014775049 -0.015944907 -0.13034812 0.18064667 0.13489012 0.1974532 0.058621086 -0.2285886
-0.040305335 0.17055844 0.01773411 -0.20016174 0.17377318 0.05566276 0.38661528 0.23394838
0.08121677 -0.06003338 -0.15719941 -0.07001774 0.04294099 0.069714375 -0.029975705 -0.21967761
-0.13814475 0.18604271 0.12520176 -0.105687685 0.05237404 0.036423255 -0.06075312 -0.1391311
-0.14563505 -0.24465613 -0.09030185 -0.25523353 -0.12638746 0.16199018 0.10113015 -0.018093051
0.12741046 -0.13121103 0.15355833 0.34655634 0.042757936 -0.071432225 0.056020115 -0.23560898
0.2930829 0.015437136 0.10270118 -0.028251585 -0.19865407 -0.168671 -0.07431662 -0.0025682126
0.23704067 0.28169844 -0.031945575 -0.13677186 -0.17817321 0.31004566 -0.104579225 -0.2031072
-0.12943864 -0.13568974 -0.06622545 -0.00064633385 0.22413284 -0.032946542 0.23597923 -0.102846876
0.13628106 -0.16039455 0.37618297 -0.065142244 -0.18681194 -0.13882215 -0.2913609 0.03563087
0.15858687 0.13968591 0.06830871 -0.27326375 0.02883237 -0.04635069 0.15391165 0.05190207
0.06665748 -0.033463378 0.14438464 0.12356048 -0.0017498665 -0.17374645 -0.12114387 -0.17541157
-0.18094201 -0.12651305 -0.19737114 0.37150487 0.042329486 0.017938841 0.0856551 0.20774288
0.1266794 0.17696905 -0.14199445 -0.16557765 -0.16978756 -0.08510411 -0.1505331 0.32759845
-0.16800149 0.02236204 0.04057801 -0.1516851 0.22078112 -0.09820562 -0.09695892 -0.11771366
-0.082220115 -0.13875757 -0.2310677 0.24469598 0.24503495 0.0047044056 0.2718513 0.027904611
-0.12574323 -0.0920782 -0.00476224 -0.07518602 -0.04753255 0.117284544 0.00071509497 -0.043030076
-0.024454053 -0.17209475 0.19538873 -0.1035322 -0.06875923 0.12687485 -0.11645332 0.15234542
-0.19953147 0.18913087 -0.08047215 0.027053356 0.023074545 -0.5994814 -0.19473378 -0.036112357
-0.14375652 -0.09251234 0.15332164 -0.19261043 -0.026834708 -0.06227445 0.06558013 -0.026045296
0.20689708 -0.17020911 0.020712413 0.029353945 -0.22134721 -0.16703366 0.1170687 0.15302637
-0.29995677 0.13582331 0.33426535 0.07408526 -0.15779234 -0.10032097 -0.16205901 -0.32693326
0.25395775 -0.27921623 -0.120545484 0.30050358 0.123311855 -0.23257452 -0.12281416 0.025602195
0.015454418 -0.19282058 0.24690111 0.11070169 0.20348959 -0.10755481 -0.20828195 0.005125876
0.1036935 -0.117928766 -0.059914503 -0.08311207 0.09029746 0.0077763773 0.10069883 -0.012814664
-0.0780519 0.06267886 -0.054255284 -0.044579227 -0.09139277 0.30742663 -0.026597895 -0.09566233
-0.13256407 -0.025479289 -0.049063947 0.05142852 -0.0758158 -0.049169067 0.3034966 0.041848086
0.2848033 -0.17540804 0.11799357 -0.10043213 0.1039885 -0.021673685 -0.27800363 -0.17733802
-0.0019704907 0.16817847 -0.17648973 -0.09144539 -0.035724595 0.18420114 0.01847235 -0.28655878
0.23232429 -0.12616448 -0.06925099 0.16121127 0.17298895 0.012029494 -0.11370686 -0.0031198845
00000000: 767a 863d 2c14 b53e 1ec7 433d d9e1 393c
00000010: 9484 9dbd 2880 883a 59a3 563e 62c2 92be
00000020: 283b c7bd 84e8 08be 84d7 1c3d 0f15 383d
00000030: b763 993e a2f8 a13d e25a f03b 1f85 c63d
00000040: 0c13 723c e59e 82bc fa79 05be 71fb 383e
00000050: a320 0a3e 2c31 4a3e aa1c 703d 2113 6abe
00000060: 3517 25bd dfa6 2e3e 2047 913c 33f7 4cbe
00000070: 99f1 313e a2fe 633d 70f2 c53e 2a90 6f3e
00000080: fa54 a63d 90e5 75bd e2f8 20be 7665 8fbd
00000090: e4e2 2f3d 69c6 8e3d 9c8f f5bc 2bf3 60be
000000a0: d175 0dbe fb81 3e3e e434 003e c972 d8bd
000000b0: 2986 563d 8d30 153d 43d8 78bd 6278 0ebe
000000c0: 5b21 15be 2387 7abe 2df0 b8bd f8ad 82be
000000d0: b76b 01be c1e0 253e 531d cf3d e137 94bc
000000e0: e377 023e 2f5c 06be 653e 1d3e d56f b13e
000000f0: f222 2f3d 0f4b 92bd 5975 653d 7b43 71be
00000100: f60e 963e 0bec 7c3c ff54 d23d de6f e7bc
00000110: f96b 4bbe 17b8 2cbe 5033 98bd 754f 28bb
00000120: caba 723e c73a 903e 5dd9 02bd ec0d 0cbe
00000130: 0a73 36be 4ebe 9e3e a22d d6bd 55fb 4fbe
00000140: 908b 04be 40f2 0abe 35a1 87bd bb6e 29ba
00000150: 1483 653e f4f2 06bd 8aa4 713e 62a1 d2bd
00000160: 438d 0b3e 783e 24be 0e9b c03e 4c69 85bd
00000170: a14b 3fbe 6527 0ebe 422d 95be adf1 113d
00000180: 9964 223e d309 0f3e 70e5 8b3d 3ae9 8bbe
00000190: dd31 ec3c 39da 3dbd 049b 1d3e 4497 543d
000001a0: b883 883d e510 09bd 91d9 133e 470d fd3d
000001b0: c75b e5ba 97ea 31be 471a f8bd 179f 33be
000001c0: dd48 39be a38c 01be a91b 4abe e335 be3e
000001d0: af61 2d3d 7af4 923c f16b af3d 8dba 543e
000001e0: 3fb8 013e 6037 353e fe66 11be 308d 29be
000001f0: cadc 2dbe 104b aebd 5925 1abe fcba a73e
00000200: 9508 2cbe 9930 b73c 2135 263d 5753 1bbe
00000210: 7214 623e 0720 c9bd 6692 c6bd dc13 f1bd
00000220: 0563 a8bd 7716 0ebe 039d 6cbe 9591 7a3e
00000230: 71ea 7a3e 6a27 9a3b 1830 8b3e 3698 e43c
00000240: d5c2 00be 7f93 bcbd 910c 9cbb 21fb 99bd
00000250: 7eb1 42bd e132 f03d 3675 3b3a 4e40 30bd
00000260: de53 c8bc 9b39 30be fc13 483e b108 d4bd
00000270: a4d1 8cbd 7beb 013e 147f eebd 7000 1c3e
00000280: fa51 4cbe 86ab 413e 95ce a4bd 009f dd3c
00000290: d406 bd3c 9d77 19bf 4b68 47be 8dea 13bd
000002a0: e934 13be 1c77 bdbd 5900 1d3e ab3b 45be
000002b0: 76d4 dbbc 7e13 7fbd e04e 863d f25c d5bc
000002c0: d4dc 533e 4c4b 2ebe 14ad a93c af77 f03c
000002d0: d8a8 62be df0a 2bbe b7c1 ef3d f2b2 1c3e
000002e0: ef93 99be 4415 0b3e d424 ab3e 03ba 973d
000002f0: 5194 21be 1575 cdbd ccf2 25be cc63 a7be
00000300: c006 823e 6ef5 8ebe 8de0 f6bd 9bdb 993e
00000310: ed8a fc3d 0428 6ebe fe85 fbbd b2bb d13c
00000320: 8734 7d3c c272 45be a5d3 7c3e 91b7 e23d
00000330: 935f 503e b245 dcbd dd47 55be f7f6 a73b
00000340: 425d d43d a384 f1bd e968 75bd a936 aabd
00000350: e0ed b83d fbd0 fe3b 303b ce3d 99f4 51bc
00000360: add9 9fbd c65d 803d ca3a 5ebd b598 36bd
00000370: 222c bbbd 0667 9d3e d4e3 d9bc 9dea c3bd
00000380: e0be 07be f1b9 d0bc 47f7 48bd b6a6 523d
00000390: 5045 9bbd 8165 49bd e863 9b3e e668 2b3d
000003a0: bdd1 913e 2a9e 33be 9da6 f13d 5caf cdbd
000003b0: ecf7 d43d 038d b1bc 7e56 8ebe 1998 35be
000003c0: 5923 01bb fa36 2c3e b9b9 34be b847 bbbd
000003d0: f453 12bd 399f 3c3e 5353 973c d5b7 92be
000003e0: 6be6 6d3e 4331 01be 77d3 8dbd 9114 253e
000003f0: 0424 313e 5b17 453c 24df e8bd fa76 4cbb

sequential_1/conv2d_reparameterization_3/234586 f4 [128]
-0.055632044 0.0027462987 -0.079029836 -0.09672706 -0.13547468 -0.060025614 0.029452028 -0.23448797
-0.19274469 0.09669826 -0.15517896 -0.09486269 -0.17031495 -0.009677482 -0.1624268 -0.058171142
0.09300165 -0.19868703 -0.077998005 -0.19447441 -0.035376377 -0.1911943 -0.041448776 -0.063400105
0.05200808 -0.16880198 -0.24663849 -0.105130166 -0.20465218 -0.18145159 -0.09570157 -0.010534705
-0.1271953 0.028410874 -0.14664488 -0.23236299 -0.126042 0.0092389025 -0.11258332 0.051572796
0.034890663 -0.09330487 0.1692036 -0.14980221 -0.003701945 0.24528018 -0.21022691 0.07012449
0.028407931 -0.048530426 -0.07350146 -0.26723558 -0.23131233 -0.106378816 -0.046797987 -0.1440042
-0.098958366 -0.05841362 0.008180036 0.00041077944 0.030181313 -0.18825905 -0.00889087 0.045028236
-0.026035646 0.15318213 -0.08035075 -0.016016293 -0.02803881 -0.03298409 -0.091447875 -0.018161448
0.011668779 0.055475973 -0.0080357045 0.08609925 0.009261497 -0.054684788 0.20518763 0.03558825
-0.05499243 -0.18483582 -0.019431883 -0.1904368 -0.17903154 -0.200659 -0.062747836 -0.17083748
-0.07201094 -0.2318761 0.109990105 -0.07916107 -0.28123838 -0.095035575 -0.07480132 -0.09396017
-0.14576569 -0.03286608 -0.14871222 -0.12739101 -0.1025354 -0.039383054 0.005783132 -0.0819896
-0.2080759 -0.055910632 -0.03473999 -0.11165607 0.06665641 -0.14909758 -0.09605906 -0.07360123
-0.081078626 0.12099008 -0.07178674 -0.047735363 -0.060840424 -0.1284965 -0.16540878 -0.03979169
-0.009478422 -0.2151226 0.0061693233 -0.2970681 -0.034298513 -0.23652087 -0.1368332 -0.101804115
00000000: 6dde 63bd 3ffb 333b 65da a1bd d618 c6bd
00000010: e0b9 0abe 6bdd 75bd 6145 f13c 9d1d 70be
00000020: dd5e 45be bd09 c63d 3ce7 1ebe 5f47 c2bd
00000030: 0b67 2ebe 4d8e 1ebc 3653 26be dd44 6ebd
00000040: a677 be3d 9d74 4bbe 6bbd 9fbd 4d24 47be
00000050: d2e6 10bd 70c8 43be 31c6 29bd ead7 81bd
00000060: 6d06 553d 6dda 2cbe cd8e 7cbe 7c4e d7bd
00000070: 5790 51be 72ce 39be 2fff c3bd c199 2cbc
00000080: 7c3f 02be ecbd e83c 132a 16be 90f0 6dbe
00000090: 2711 01be c45e 173c 1592 e6bd ff3d 533d
000000a0: 83e9 0e3d a016 bfbd b543 2d3e c065 19be
000000b0: 559c 72bb ba2a 7b3e b945 57be 6e9d 8f3d
000000c0: c0b7 e83c d7c7 46bd ef87 96bd 1ad3 88be
000000d0: 24dd 6cbe 23dd d9bd 3faf 3fbd d675 13be
000000e0: afaa cabd 1f43 6fbd 8f05 063c e25d d739
000000f0: cd3e f73c fbc6 40be 03ab 11bc 876f 383d
00000100: b548 d5bc c7db 1c3e ef8e a4bd 9a34 83bc
00000110: a5b1 e5bc 531a 07bd 0649 bbbd 51c7 94bc
00000120: 682e 3f3c c63a 633d 30a8 03bc ce54 b03d
00000130: 89bd 173c 28fd 5fbd b51c 523e fcc4 113d
00000140: be3f 61bd 9a45 3dbe 9d2f 9fbc dd01 43be
00000150: 0b54 37be 8e79 4dbe f081 80bd 05f0 2ebe
00000160: 797a 93bd ee70 6dbe 7e42 e13d 331f a2bd
00000170: 7afe 8fbe 03a2 c2bd 6f31 99bd 316e c0bd
00000180: 9a43 15be 959e 06bd 0448 18be ca72 02be
00000190: 14fe d1bd 2050 21bd 6d80 bd3b 2aea a7bd
000001a0: d911 55be 8c02 65bd 854b 0ebd f0ab e4bd
000001b0: 2883 883d 09ad 18be 9dba c4bd 3ebc 96bd
000001c0: 8d0c a6bd a6c9 f73d ed04 93bd 2886 43bd
000001d0: cf33 79bd 9694 03be eb60 29be 9cfc 22bd
000001e0: 624b 1bbc 1949 5cbe 0928 ca3b 4f19 98be
000001f0: 997c 0cbd 8732 72be 011e 0cbe ad7e d0bd

sequential_1/conv2d_reparameterization_2/234389 f4 [64]
-0.1487128 -0.117751524 -0.06445939 0.036996584 -0.042997446 0.06643463 0.08664706 -0.22006491
-0.076269194 -0.15033373 0.04148958 -0.12219717 -0.28862414 -0.07492152 0.04142139 -0.010432196
-0.113953 -0.06035146 0.020040002 0.003817903 -0.16772436 0.05896991 -0.115724444 -0.110984735
-0.09601154 0.091129586 -0.14478013 -0.021775415 -0.06562371 -0.1088187 -0.07850083 -0.12728414
-0.17600869 0.095727734 -0.06560227 0.12850066 -0.07989589 -0.22251175 -0.15843281 0.04037378
-0.16472803 -0.02811231 -0.29245228 -0.10496805 -0.12504373 -0.04623042 -0.07783298 0.0873966
-0.18780054 -0.21085593 0.039864 0.009951575 -0.2640509 -0.102246605 -0.003330434 0.11496936
0.046462867 -0.04419179 -0.1418914 -0.10077821 -0.03316728 -0.084822305 -0.24701527 -0.01846333
00000000: 2b48 18be b627 f1bd 4903 84bd bb89 173d
00000010: 171e 30bd e10e 883d 0474 b13d b258 61be
00000020: 0633 9cbd 16f1 19be faf0 293d 8342 fabd
00000030: 8bc6 93be 7470 99bd 7aa9 293d cdeb 2abc
00000040: 3160 e9bd 1833 77bd ee2a a43c c935 7a3b
00000050: efbf 2bbe 6f8a 713d f000 edbd f74b e3bd
00000060: b3a1 c4bd 26a2 ba3d 3e41 14be 5b62 b2bc
00000070: b965 86bd 57dc debd 0bc5 a0bd c656 02be
00000080: 9f3b 34be e70c c43d 7c5a 86bd ad95 033e
00000090: 75a0 a3bd 1fda 63be 363c 22be fa5e 253d
000000a0: 77ae 28be ca4b e6bc 4ebc 95be 7df9 d6bd
000000b0: 770b 00be 1c5c 3dbd e666 9fbd fdfc b23d
000000c0: c94e 40be 9eea 57be 6f48 233d ee0b 233c
000000d0: ae31 87be ab66 d1bd 6943 5abb 0e75 eb3d
000000e0: d94f 3e3d 7302 35bd fb4b 11be ce64 cebd
000000f0: 6ada 07bd 51b7 adbd 92f1 7cbe 6940 97bc

sequential_1/conv2d_reparameterization_1/234192 f4 [32]
-0.0017561768 -0.07344342 -0.20805421 -0.024663119 0.026156304 -0.11972075 -0.026601525 -0.1317044
0.08609029 -0.12713596 -0.086635396 -0.0583778 0.04152542 -0.17238662 -0.0550439 -0.15980153
-0.15579952 -0.10413954 -0.06293977 -0.0504577 -0.015116859 -0.14015703 -0.16744907 -0.08240418
-0.18791357 -0.13652737 -0.25441933 -0.081847146 -0.15897097 -0.114566445 -0.1516683 -0.04040285
00000000: 842f e6ba 8169 96bd 2a0c 55be 4f0a cabc
00000010: bf45 d63c 2730 f5bd 71eb d9bc 85dd 06be
00000020: 1b50 b03d ee2f 02be e66d b1bd 8f1d 6fbd
00000030: 8f16 2a3d 1e86 30be b675 61bd 03a3 23be
00000040: e989 1fbe 1c47 d5bd 91e6 80bd bcac 4ebd
00000050: b4ac 77bc 5385 0fbe c577 2bbe 86c3 a8bd
00000060: 6a6c 40be d5cd 0bbe 4043 82be 7a9f a7bd
00000070: 49c9 22be d0a1 eabd ef4e 1bbe 757d 25bd

sequential_1/conv2d_reparameterization/233995 f4 [16]
-0.0094041275 -0.04620652 -0.020139866 -0.04592767 0.023873188 -0.01100706 0.026257915 0.028851407
-0.10888305 -0.087160565 -0.12504512 -0.10565559 -0.03438434 0.054023694 0.048715103 -0.10633134
00000000: c513 1abc 0c43 3dbd 5cfc a4bc a71e 3cbd
00000010: b491 c33c f556 34bc d71a d73c c959 ec3c
00000020: 14fe debd 3d81 b2bd d40b 00be f561 d8bd
00000030: 98d6 0cbd f347 5d3d 7d89 473d 3fc4 d9bd

conv2d_reparameterization_Independentconv2d_reparameterization_Normal_1/sample/conv2d_reparameterization_Normal/sample/add;sequential_1/conv2d_reparameterization/StatefulPartitionedCall/conv2d_reparameterization_Independentconv2d_reparameterization_Normal_1/sample/conv2d_reparameterization_Normal/sample/add f4 [16]
0.028880455 0.03796861 0.0334406 0.028981641 0.030129462 0.035467893 0.028136749 0.032640614
0.027131602 0.027434032 0.037894417 0.031995658 0.03186536 0.034292236 0.02834853 0.024898069
00000000: b496 ec3c f984 1b3d 03f9 083d e86a ed3c
00000010: 10d2 f63c c846 113d 0a7f e63c 2ab2 053d
00000020: 1843 de3c 56bd e03c 2d37 1b3d e10d 033d
00000030: 4085 023d 0476 0c3d 2d3b e83c 09f7 cb3c

conv2d_reparameterization_1_Independentconv2d_reparameterization_1_Normal_1/sample/conv2d_reparameterization_1_Normal/sample/add;sequential_1/conv2d_reparameterization_1/StatefulPartitionedCall/conv2d_reparameterization_1_Independentconv2d_reparameterization_1_Normal_1/sample/conv2d_reparameterization_1_Normal/sample/add f4 [32]
0.041891873 0.029947873 0.041118983 0.03624266 0.039772864 0.042280532 0.03696644 0.040215306
0.038411215 0.041531805 0.03597038 0.045980368 0.044536088 0.046381976 0.039399624 0.038142193
0.040950283 0.038366366 0.04343311 0.042234205 0.04063772 0.046661768 0.04438193 0.045320157
0.045706272 0.042511642 0.044314828 0.04365956 0.036666267 0.03682009 0.0372902 0.037856914
00000000: d096 2b3d 3e55 f53c 616c 283d 2f73 143d
00000010: dfe8 223d 5a2e 2d3d 1f6a 173d ceb8 243d
00000020: 1455 1d3d 411d 2a3d ad55 133d e955 3c3d
00000030: 796b 363d 07fb 3d3d 8061 213d fd3a 1c3d
00000040: 7cbb 273d 0d26 1d3d ebe6 313d c6fd 2c3d
00000050: bd73 263d 6920 3f3d d4c9 353d a1a1 393d
00000060: 8036 3b3d b020 2e3d 7783 353d 5ed4 323d
00000070: 5e2f 163d aad0 163d 9cbd 183d da0f 1b3d

conv2d_reparameterization_2_Independentconv2d_reparameterization_2_Normal_1/sample/conv2d_reparameterization_2_Normal/sample/add;sequential_1/conv2d_reparameterization_2/StatefulPartitionedCall/conv2d_reparameterization_2_Independentconv2d_reparameterization_2_Normal_1/sample/conv2d_reparameterization_2_Normal/sample/add f4 [64]
0.062286805 0.054107133 0.05137706 0.056041896 0.062121008 0.056819856 0.05875566 0.05970521
0.06329613 0.063194096 0.059837144 0.058802005 0.05959364 0.05445727 0.06315335 0.05757229
0.05109842 0.047129724 0.05407044 0.055718753 0.061562374 0.05758083 0.06538763 0.05590158
0.059381623 0.057216566 0.051974066 0.057104725 0.05409829 0.05744716 0.0460858 0.0635673
0.07005782 0.058090452 0.055742808 0.048763894 0.06019625 0.0521485 0.052722327 0.04673982
0.04637868 0.060580622 0.050832413 0.052093968 0.06553909 0.05279768 0.05188506 0.06651649
0.062292695 0.054417327 0.056503724 0.05560156 0.05874075 0.05531983 0.061370566 0.05804152
0.053068288 0.053208083 0.0625609 0.043602716 0.04796603 0.05496049 0.05913017 0.06618482
00000000: 7320 7f3d 719f 5d3d c170 523d 308c 653d
00000010: 9972 7e3d f0bb 683d c6a9 703d 738d 743d
00000020: 67a1 813d e86b 813d cb17 753d 5fda 703d
00000030: 7618 743d 960e 5f3d 8b56 813d ecd0 6b3d
00000040: 944c 513d 190b 413d f778 5d3d 5939 643d
00000050: d428 7c3d e0d9 6b3d f3e9 853d 0ef9 643d
00000060: 253a 733d eb5b 6a3d c2e2 543d a5e6 693d
00000070: 2b96 5d3d b74d 6b3d 77c4 3c3d 932f 823d
00000080: 797a 8f3d 41f0 6d3d 9252 643d a6bc 473d
00000090: 5890 763d aa99 553d 5ef3 573d 4172 3f3d
000000a0: 92f7 3d3d 6323 783d a635 503d 7c60 553d
000000b0: 5c39 863d 6142 583d 6e85 543d cc39 883d
000000c0: a026 7f3d b4e4 5e3d 7370 673d 76be 633d
000000d0: 249a 703d 0c97 623d b45f 7b3d f2bc 6d3d
000000e0: 225e 593d b8f0 593d ee1f 803d c398 323d
000000f0: 0778 443d 401e 613d 7a32 723d e88b 873d

conv2d_reparameterization_3_Independentconv2d_reparameterization_3_Normal_1/sample/conv2d_reparameterization_3_Normal/sample/add;sequential_1/conv2d_reparameterization_3/StatefulPartitionedCall/conv2d_reparameterization_3_Independentconv2d_reparameterization_3_Normal_1/sample/conv2d_reparameterization_3_Normal/sample/add f4 [128]
0.103107944 0.11125108 0.09522502 0.10140987 0.098968245 0.08867511 0.09295962 0.08769473
0.105277576 0.1036996 0.13284956 0.085159965 0.096182875 0.08930007 0.10118888 0.1332344
0.084485956 0.1377849 0.089665756 0.08486347 0.09914219 0.15216759 0.11785841 0.09355488
0.09995502 0.12055781 0.15187159 0.12856299 0.11489352 0.09647869 0.09812416 0.10477399
0.103270486 0.0975762 0.10228431 0.07904167 0.11194761 0.0835885 0.12236598 0.08276741
0.09758522 0.1329994 0.10091568 0.11461746 0.107755356 0.087436564 0.11300709 0.10281785
0.08924178 0.11904255 0.103415914 0.11392463 0.10398389 0.11010597 0.090045206 0.10944939
0.13678001 0.13475324 0.0876845 0.09088814 0.110069305 0.12613301 0.123504035 0.08193841
0.07934178 0.089314364 0.077274375 0.125857 0.08550071 0.12395475 0.12793048 0.11661818
0.09119999 0.11639375 0.08599009 0.10084065 0.10411136 0.112154946 0.084304385 0.09741791
0.110220134 0.088093586 0.09537035 0.11680241 0.100686006 0.091150604 0.11194556 0.09828484
0.0909948 0.106515005 0.088783205 0.12013122 0.18500498 0.106959604 0.09879473 0.14238967
0.08513658 0.09927914 0.11472511 0.098106936 0.1030445 0.115931004 0.08336929 0.107076734
0.09252181 0.0892105 0.11304497 0.11858383 0.106164776 0.11365286 0.10503082 0.088935524
0.11364034 0.10009668 0.10082045 0.11719723 0.11504632 0.14025338 0.12967615 0.103125215
0.10269018 0.110842556 0.10639952 0.13267566 0.11223975 0.10042487 0.10111828 0.10054629
00000000: 422a d33d 9bd7 e33d 5605 c33d faaf cf3d
00000010: ddaf ca3d 4c9b b53d 9d61 be3d 4b99 b33d
00000020: c59b d73d 7560 d43d b709 083e 5968 ae3d
00000030: 87fb c43d f5e2 b63d 1e3c cf3d 996e 083e
00000040: f906 ad3d 7c17 0d3e aea2 b73d e6cc ad3d
00000050: 0f0b cb3d d2d1 1b3e c05f f13d b399 bf3d
00000060: 38b5 cc3d 03e7 f63d 3a84 1b3e 04a6 033e
00000070: 4b4d eb3d 9f96 c53d 52f5 c83d bf93 d63d
00000080: 7a7f d33d 08d6 c73d 707a d13d 99e0 a13d
00000090: ca44 e53d 7330 ab3d 049b fa3d f681 a93d
000000a0: c3da c73d ff30 083e e1ac ce3d 8fbc ea3d
000000b0: d7ae dc3d f111 b33d 4370 e73d 2a92 d23d
000000c0: 65c4 b63d 95cc f33d b9cb d33d 5151 e93d
000000d0: 81f5 d43d 3d7f e13d 9f69 b83d 0027 e03d
000000e0: 0f10 0c3e c1fc 093e ee93 b33d 9023 ba3d
000000f0: 046c e13d 0329 013e afef fc3d 53cf a73d
00000100: f17d a23d 73ea b63d 0742 9e3d a8e0 003e
00000110: ff1a af3d fddb fd3d 3500 033e 83d5 ee3d
00000120: 0fc7 ba3d d95f ee3d 931b b03d 8b85 ce3d
00000130: 5638 d53d 7eb1 e53d c7a7 ac3d 0b83 c73d
00000140: 18bb e13d 696a b43d 8851 c33d 1a36 ef3d
00000150: 7734 ce3d 2bad ba3d b743 e53d 9049 c93d
00000160: 7b5b ba3d 8a24 da3d f8d3 b53d 5b07 f63d
00000170: f271 3d3e a30d db3d e454 ca3d 99ce 113e
00000180: 165c ae3d dd52 cb3d 00f5 ea3d 4aec c83d
00000190: ff08 d33d 3c6d ed3d 85bd aa3d 0c4b db3d
000001a0: 137c bd3d ffb3 b63d 1f84 e73d 14dc f23d
000001b0: eb6c d93d d5c2 e83d 661a d73d d423 b63d
000001c0: 44bc e83d 7dff cc3d f47a ce3d 1a05 f03d
000001d0: 689d eb3d 959e 0f3e d3c9 043e 5033 d33d
000001e0: 3b4f d23d 6c01 e33d fee7 d93d 21dc 073e
000001f0: f4dd e53d 8eab cd3d 1a17 cf3d 37eb cd3d

dense_reparameterization_Independentdense_reparameterization_Normal/sample/dense_reparameterization_Normal/sample/add;sequential_1/dense_reparameterization/StatefulPartitionedCall/dense_reparameterization_Independentdense_reparameterization_Normal/sample/dense_reparameterization_Normal/sample/add f4 [128, 10]
0.06635742 0.0522726 0.060180362 0.07234806 0.054530982 0.061946932 0.051024027 0.0643433
0.056330968 0.06909336 0.072966516 0.07380887 0.053995218 0.05494702 0.06093058 0.05278922
0.07409979 0.058967356 0.06097046 0.04529363 0.052940518 0.050272707 0.057176363 0.055501796
0.049895324 0.05018753 0.043311946 0.052427016 0.04215657 0.04638852 0.0465456 0.04524032
0.057966493 0.07993668 0.05826517 0.069194816 0.057887435 0.05254766 0.05320404 0.057699833
0.07197984 0.05723379 0.055144124 0.06339886 0.060783472 0.059682462 0.053719178 0.07560836
0.062469583 0.067297496 0.07379047 0.0664394 0.060189106 0.04990246 0.054349273 0.054026347
0.062418 0.058234487 0.047146693 0.04633282 0.06717078 0.06991745 0.0579245 0.07478819
0.049368173 0.06191716 0.060126785 0.059229262 0.066245526 0.0643853 0.07430504 0.052444667
0.042268373 0.04280576 0.059486646 0.06147205 0.094958924 0.04269242 0.054038856 0.05993771
0.066490196 0.07327323 0.0608358 0.07267694 0.046931695 0.061726864 0.05525557 0.07687926
0.05551364 0.057176765 0.04119978 0.059017833 0.051506538 0.06570504 0.069440074 0.052280236
0.04145407 0.052602366 0.042753343 0.0530861 0.08451535 0.081966534 0.06266701 0.07119181
0.07766941 0.07385903 0.06934254 0.06278783 0.065913126 0.07454475 0.058886807 0.06865404
0.05597983 0.049629077 0.053387064 0.034845673 0.043264132 0.048289582 0.03736232 0.03859091
0.06082133 0.052046467 0.050232295 0.056806598 0.0610502 0.058584344 0.06654216 0.043464445
0.05825699 0.050261695 0.07809933 0.08538608 0.066212304 0.0643304 0.06650215 0.07506188
0.08639889 0.06711791 0.06271344 0.049658615 0.050457112 0.06684787 0.042336125 0.051163662
0.058042757 0.05621319 0.06608021 0.04906252 0.05101128 0.045156587 0.10509831 0.08233725
0.07348885 0.082143284 0.051182967 0.08185208 0.08405656 0.057608727 0.07099397 0.048348844
0.065217525 0.046241198 0.050397456 0.04635448 0.053784657 0.06295658 0.06592599 0.04810935
0.050670546 0.051833615 0.05033479 0.07141172 0.07298857 0.064891405 0.05689529 0.05216861
0.050606042 0.07754625 0.051251806 0.050201386 0.06831734 0.06460896 0.051141728 0.049346324
0.07313502 0.04831271 0.05289741 0.046124913 0.052245356 0.059680507 0.05838206 0.059743386
0.054711398 0.05853714 0.056667507 0.046019547 0.040230386 0.061505947 0.04500186 0.050140154
0.06855677 0.068199255 0.04525787 0.05486701 0.05030592 0.06017014 0.06882668 0.045406226
0.04723685 0.047824312 0.093897365 0.08769173 0.058598325 0.06679417 0.05690501 0.069473244
0.08183819 0.05761221 0.06548651 0.057221405 0.082780525 0.052960962 0.055285964 0.059755474
0.067215845 0.06909076 0.084298044 0.05015362 0.07014641 0.06992693 0.04358946 0.058051307
0.042352583 0.057847407 0.053929005 0.06715965 0.043723136 0.05054604 0.05153513 0.05489642
0.057835028 0.05978939 0.058627516 0.06542423 0.050656497 0.047522917 0.044282526 0.072561674
0.043885536 0.057125736 0.058722064 0.058163624 0.042641975 0.050042585 0.059930038 0.062443905
00000000: 66e6 873d cb1b 563d af7f 763d 382b 943d
00000010: e15b 5f3d 11bc 7d3d 92fe 503d 6cc6 833d
00000020: 4dbb 663d d280 8d3d 786f 953d 1b29 973d
00000030: 172a 5d3d 2010 613d 5892 793d 8239 583d
00000040: a1c1 973d c187 713d 29bc 793d d085 393d
00000050: 28d8 583d c1ea 4d3d c331 6a3d da55 633d
00000060: 0a5f 4c3d 7191 4d3d de67 313d b6bd 563d
00000070: 5eac 2c3d e401 3e3d 99a6 3e3d ea4d 393d
00000080: 466e 6d3d d8b5 a33d 75a7 6e3d 03b6 8d3d
00000090: 601b 6d3d 373c 573d 7bec 593d a956 6c3d
000000a0: 2b6a 933d fb6d 6a3d cede 613d 43d7 813d
000000b0: 17f8 783d 9975 743d a408 5c3d 8ed8 9a3d
000000c0: 1be0 7f3d 45d3 893d 751f 973d 6111 883d
000000d0: da88 763d 8666 4c3d 589d 5e3d bb4a 5d3d
000000e0: 04aa 7f3d 4987 6e3d e41c 413d 7cc7 3d3d
000000f0: d590 893d e130 8f3d 3e42 6d3d 8d2a 993d
00000100: 4836 4a3d d99c 7d3d 8147 763d 629a 723d
00000110: bcab 873d 71dc 833d 3e2d 983d 38d0 563d
00000120: 9a21 2d3d 1855 2f3d 45a8 733d 1eca 7b3d
00000130: d379 c23d 3fde 2e3d d957 5d3d 3f81 753d
00000140: 032c 883d 4610 963d f62e 793d a6d7 943d
00000150: 733b 403d 4fd5 7c3d aa53 623d e072 9d3d
00000160: 4562 633d 2f32 6a3d 1ac1 283d afbc 713d
00000170: 85f8 523d 5d90 863d 9936 8e3d cd23 563d
00000180: becb 293d 9475 573d 211e 2f3d cf70 593d
00000190: 6216 ad3d 12de a73d 9057 803d 03cd 913d
000001a0: 2411 9f3d 6743 973d 7603 8e3d e896 803d
000001b0: 76fd 863d ebaa 983d 4b33 713d 7d9a 8c3d
000001c0: 1b4b 653d dc47 4b3d 65ac 5a3d 56ba 0e3d
000001d0: bb35 313d 4ccb 453d 3b09 193d 8111 1e3d
000001e0: c91f 793d ad2e 553d 61c0 4d3d 09ae 683d
000001f0: c60f 7a3d 23f6 6f3d 4247 883d c607 323d
00000200: e29e 6e3d 35df 4d3d 8bf2 9f3d e6de ae3d
00000210: 519a 873d a8bf 833d 4732 883d 0bba 993d
00000220: e7f1 b03d 1d75 893d e76f 803d d566 4b3d
00000230: 1eac 4e3d 89e7 883d a568 2d3d fd90 513d
00000240: 3ebe 6d3d cd3f 663d 1055 873d c8f5 483d
00000250: 34f1 503d 1df6 383d c83d d73d 6fa0 a83d
00000260: 5281 963d bd3a a83d 3ba5 513d 10a2 a73d
00000270: d925 ac3d 21f7 6b3d 4965 913d 7009 463d
00000280: c490 853d 6967 3d3d 906d 4e3d 32de 3d3d
00000290: 4d4d 5c3d 61ef 803d 3504 873d 4f0e 453d
000002a0: eb8b 4f3d 7c4f 543d da2b 4e3d 4f40 923d
000002b0: 087b 953d c9e5 843d 090b 693d c1ae 553d
000002c0: 4848 4f3d 91d0 9e3d 6aed 513d f89f 4d3d
000002d0: f6e9 8b3d b451 843d fd79 513d 5f1f 4a3d
000002e0: d0c7 953d 8ce3 453d f4aa 583d 7aed 3c3d
000002f0: 3aff 553d 8c73 743d 0722 6f3d 7bb5 743d
00000300: 0f19 603d a4c4 6f3d 301c 683d fe7e 3c3d
00000310: 9ec8 243d a9ed 7b3d df53 383d c35f 4d3d
00000320: 7e67 8c3d 0dac 8b3d 5160 393d 3bbc 603d
00000330: 950d 4e3d f774 763d 01f5 8c3d e1fb 393d
00000340: 6d7b 413d 6de3 433d 434d c03d b997 b33d
00000350: cc04 703d 62cb 883d 3a15 693d fd47 8e3d
00000360: c89a a73d c8fa 6b3d cb1d 863d fe60 6a3d
00000370: d688 a93d 98ed 583d 8973 623d 28c2 743d
00000380: 76a8 893d 757f 8d3d 74a4 ac3d e26d 4d3d
00000390: eca8 8f3d da35 8f3d dd8a 323d 35c7 6d3d
000003a0: e779 2d3d 67f1 6c3d a9e4 5c3d 008b 893d
000003b0: 0817 333d 5d09 4f3d 8016 533d 12db 603d
000003c0: 6ce4 6c3d b8e5 743d 6823 703d 24fd 853d
000003d0: 307d 4f3d 64a7 423d 9861 353d 379b 943d
000003e0: 52c1 333d adfc 693d 8c86 703d fb3c 6e3d
000003f0: 5aa9 2e3d 74f9 4c3d 3379 753d 2ec5 7f3d

dense_reparameterization_Independentdense_reparameterization_Normal_1/sample/dense_reparameterization_Normal/sample/add;sequential_1/dense_reparameterization/StatefulPartitionedCall/dense_reparameterization_Independentdense_reparameterization_Normal_1/sample/dense_reparameterization_Normal/sample/add f4 [10]
0.07320912 0.06333192 0.06357184 0.064324364 0.06678456 0.058930732 0.0635505 0.058760792
0.059376154 0.055326756
00000000: aaee 953d 2ab4 813d f431 823d 7ebc 833d
00000010: 58c6 883d 5a61 713d c426 823d 28af 703d
00000020: 6934 733d 4f9e 623d

Conv2D;sequential_1/conv2d_reparameterization/StatefulPartitionedCall/Conv2D f4 [16]
0.0 0.0 0.0 0.0 0.0 0.0 0.0 0.0
0.0 0.0 0.0 0.0 0.0 0.0 0.0 0.0
00000000: 0000 0000 0000 0000 0000 0000 0000 0000
00000010: 0000 0000 0000 0000 0000 0000 0000 0000
00000020: 0000 0000 0000 0000 0000 0000 0000 0000
00000030: 0000 0000 0000 0000 0000 0000 0000 0000

Conv2D;sequential_1/conv2d_reparameterization_1/StatefulPartitionedCall/Conv2D f4 [32]
0.0 0.0 0.0 0.0 0.0 0.0 0.0 0.0
0.0 0.0 0.0 0.0 0.0 0.0 0.0 0.0
0.0 0.0 0.0 0.0 0.0 0.0 0.0 0.0
0.0 0.0 0.0 0.0 0.0 0.0 0.0 0.0
00000000: 0000 0000 0000 0000 0000 0000 0000 0000
00000010: 0000 0000 0000 0000 0000 0000 0000 0000
00000020: 0000 0000 0000 0000 0000 0000 0000 0000
00000030: 0000 0000 0000 0000 0000 0000 0000 0000
00000040: 0000 0000 0000 0000 0000 0000 0000 0000
00000050: 0000 0000 0000 0000 0000 0000 0000 0000
00000060: 0000 0000 0000 0000 0000 0000 0000 0000
00000070: 0000 0000 0000 0000 0000 0000 0000 0000

Conv2D;sequential_1/conv2d_reparameterization_2/StatefulPartitionedCall/Conv2D f4 [64]
0.0 0.0 0.0 0.0 0.0 0.0 0.0 0.0
0.0 0.0 0.0 0.0 0.0 0.0 0.0 0.0
0.0 0.0 0.0 0.0 0.0 0.0 0.0 0.0
0.0 0.0 0.0 0.0 0.0 0.0 0.0 0.0
0.0 0.0 0.0 0.0 0.0 0.0 0.0 0.0
0.0 0.0 0.0 0.0 0.0 0.0 0.0 0.0
0.0 0.0 0.0 0.0 0.0 0.0 0.0 0.0
0.0 0.0 0.0 0.0 0.0 0.0 0.0 0.0
00000000: 0000 0000 0000 0000 0000 0000 0000 0000
00000010: 0000 0000 0000 0000 0000 0000 0000 0000
00000020: 0000 0000 0000 0000 0000 0000 0000 0000
00000030: 0000 0000 0000 0000 0000 0000 0000 0000
00000040: 0000 0000 0000 0000 0000 0000 0000 0000
00000050: 0000 0000 0000 0000 0000 0000 0000 0000
00000060: 0000 0000 0000 0000 0000 0000 0000 0000
00000070: 0000 0000 0000 0000 0000 0000 0000 0000
00000080: 0000 0000 0000 0000 0000 0000 0000 0000
00000090: 0000 0000 0000 0000 0000 0000 0000 0000
000000a0: 0000 0000 0000 0000 0000 0000 0000 0000
000000b0: 0000 0000 0000 0000 0000 0000 0000 0000
000000c0: 0000 0000 0000 0000 0000 0000 0000 0000
000000d0: 0000 0000 0000 0000 0000 0000 0000 0000
000000e0: 0000 0000 0000 0000 0000 0000 0000 0000
000000f0: 0000 0000 0000 0000 0000 0000 0000 0000

Conv2D;sequential_1/conv2d_reparameterization_3/StatefulPartitionedCall/Conv2D f4 [128]
0.0 0.0 0.0 0.0 0.0 0.0 0.0 0.0
0.0 0.0 0.0 0.0 0.0 0.0 0.0 0.0
0.0 0.0 0.0 0.0 0.0 0.0 0.0 0.0
0.0 0.0 0.0 0.0 0.0 0.0 0.0 0.0
0.0 0.0 0.0 0.0 0.0 0.0 0.0 0.0
0.0 0.0 0.0 0.0 0.0 0.0 0.0 0.0
0.0 0.0 0.0 0.0 0.0 0.0 0.0 0.0
0.0 0.0 0.0 0.0 0.0 0.0 0.0 0.0
0.0 0.0 0.0 0.0 0.0 0.0 0.0 0.0
0.0 0.0 0.0 0.0 0.0 0.0 0.0 0.0
0.0 0.0 0.0 0.0 0.0 0.0 0.0 0.0
0.0 0.0 0.0 0.0 0.0 0.0 0.0 0.0
0.0 0.0 0.0 0.0 0.0 0.0 0.0 0.0
0.0 0.0 0.0 0.0 0.0 0.0 0.0 0.0
0.0 0.0 0.0 0.0 0.0 0.0 0.0 0.0
0.0 0.0 0.0 0.0 0.0 0.0 0.0 0.0
00000000: 0000 0000 0000 0000 0000 0000 0000 0000
00000010: 0000 0000 0000 0000 0000 0000 0000 0000
00000020: 0000 0000 0000 0000 0000 0000 0000 0000
00000030: 0000 0000 0000 0000 0000 0000 0000 0000
00000040: 0000 0000 0000 0000 0000 0000 0000 0000
00000050: 0000 0000 0000 0000 0000 0000 0000 0000
00000060: 0000 0000 0000 0000 0000 0000 0000 0000
00000070: 0000 0000 0000 0000 0000 0000 0000 0000
00000080: 0000 0000 0000 0000 0000 0000 0000 0000
00000090: 0000 0000 0000 0000 0000 0000 0000 0000
000000a0: 0000 0000 0000 0000 0000 0000 0000 0000
000000b0: 0000 0000 0000 0000 0000 0000 0000 0000
000000c0: 0000 0000 0000 0000 0000 0000 0000 0000
000000d0: 0000 0000 0000 0000 0000 0000 0000 0000
000000e0: 0000 0000 0000 0000 0000 0000 0000 0000
000000f0: 0000 0000 0000 0000 0000 0000 0000 0000
00000100: 0000 0000 0000 0000 0000 0000 0000 0000
00000110: 0000 0000 0000 0000 0000 0000 0000 0000
00000120: 0000 0000 0000 0000 0000 0000 0000 0000
00000130: 0000 0000 0000 0000 0000 0000 0000 0000
00000140: 0000 0000 0000 0000 0000 0000 0000 0000
00000150: 0000 0000 0000 0000 0000 0000 0000 0000
00000160: 0000 0000 0000 0000 0000 0000 0000 0000
00000170: 0000 0000 0000 0000 0000 0000 0000 0000
00000180: 0000 0000 0000 0000 0000 0000 0000 0000
00000190: 0000 0000 0000 0000 0000 0000 0000 0000
000001a0: 0000 0000 0000 0000 0000 0000 0000 0000
000001b0: 0000 0000 0000 0000 0000 0000 0000 0000
000001c0: 0000 0000 0000 0000 0000 0000 0000 0000
000001d0: 0000 0000 0000 0000 0000 0000 0000 0000
000001e0: 0000 0000 0000 0000 0000 0000 0000 0000
000001f0: 0000 0000 0000 0000 0000 0000 0000 0000

conv2d_reparameterization_Independentconv2d_reparameterization_Normal/sample/conv2d_reparameterization_Normal/sample/mul;sequential_1/conv2d_reparameterization/StatefulPartitionedCall/conv2d_reparameterization_Independentconv2d_reparameterization_Normal/sample/conv2d_reparameterization_Normal/sample/mul f4 [1, 3, 3, 1, 16]
0.049736064 0.04638099 0.038190514 0.047317922 0.064299144 0.052122723 0.035500363 0.040037893
0.032021366 0.048745807 0.0395725 0.04468712 0.04193589 0.056739476 0.045197476 0.03862658
0.042735904 0.04942048 0.043649606 0.038959555 0.066600926 0.049291328 0.03698524 0.045607567
0.034139637 0.05082202 0.04590731 0.04389649 0.041757647 0.06801922 0.04880221 0.041174527
0.04155115 0.06143171 0.04370358 0.04309468 0.05641442 0.043216012 0.040121175 0.05470095
0.03692156 0.048492223 0.04625924 0.040278662 0.043416772 0.056775782 0.051351298 0.045273095
0.04748147 0.04513134 0.04930616 0.04451695 0.063691184 0.050568476 0.038630676 0.041091993
0.03956895 0.043197144 0.04347974 0.045957122 0.04356151 0.049432114 0.03908123 0.039116
0.040616523 0.057609472 0.056591373 0.046405837 0.057438 0.043718975 0.043566305 0.043853495
0.037522525 0.04281329 0.043162316 0.042096164 0.04917742 0.0519765 0.044100992 0.043334994
0.04251639 0.05905808 0.044427797 0.03943213 0.051784426 0.048631046 0.04227991 0.049804967
0.043861475 0.03569468 0.044279516 0.03781583 0.045013055 0.04770646 0.046265177 0.041864265
0.044457186 0.044707432 0.053263284 0.045000695 0.048074603 0.042115502 0.0486539 0.042255588
0.032854937 0.03821136 0.0374729 0.048018243 0.042655267 0.0495226 0.03740754 0.04222826
0.037201397 0.052874573 0.05500608 0.0450622 0.048821673 0.04635707 0.049498618 0.04600505
0.040140957 0.041941073 0.036181085 0.040897127 0.039949577 0.044690706 0.038309995 0.038917407
0.046982497 0.053203322 0.049875744 0.04384902 0.038399715 0.04642354 0.04270643 0.05065583
0.041998718 0.04158052 0.04206824 0.03620826 0.050922602 0.04668087 0.030896842 0.0331204
00000000: 0bb8 4b3d fef9 3d3d a86d 1c3d 70d0 413d
00000010: 45af 833d a37e 553d d468 113d c6fe 233d
00000020: d628 033d afa9 473d c616 223d d709 373d
00000030: f8c4 2b3d a767 683d fd20 393d e836 1e3d
00000040: d80b 2f3d 216d 4a3d eec9 323d 0e94 1f3d
00000050: 1166 883d b4e5 493d d67d 173d 00cf 3a3d
00000060: 01d6 0b3d c02a 503d 4e09 3c3d cecc 333d
00000070: 110a 2b3d a94d 8b3d d3e4 473d 9fa6 283d
00000080: 8a31 2a3d d19f 7b3d 8602 333d 0c84 303d
00000090: cf12 673d 4603 313d 1a56 243d 1a0e 603d
000000a0: 103b 173d c89f 463d 547a 3d3d 3dfb 243d
000000b0: c9d5 313d b98d 683d bd55 523d 4870 393d
000000c0: ee7b 423d a4db 383d 42f5 493d 6857 363d
000000d0: 8670 823d e420 4f3d 333b 1e3d 1450 283d
000000e0: 0d13 223d 7def 303d d017 323d 893d 3c3d
000000f0: 8e6d 323d 5479 4a3d a413 203d 1938 203d
00000100: 835d 263d e9f7 6b3d 5bcc 673d 0c14 3e3d
00000110: 1c44 6b3d ab12 333d 9572 323d b99f 333d
00000120: 38b1 193d fd5c 2f3d f8ca 303d 076d 2c3d
00000130: 436e 493d 4fe5 543d 3ea3 343d 0980 313d
00000140: ab25 2e3d e3e6 713d ecf9 353d 9683 213d
00000150: e81b 543d 5931 473d b32d 2d3d 4b00 4c3d
00000160: 17a8 333d 9634 123d 705e 353d c6e4 1a3d
00000170: 9c5f 383d d967 433d 8e80 3d3d dd79 2b3d
00000180: bd18 363d 241f 373d 9a2a 5a3d a652 383d
00000190: e0e9 443d 4e81 2c3d 5049 473d 3214 2d3d
000001a0: e692 063d 8483 1c3d 2f7d 193d c7ae 443d
000001b0: 4ab7 2e3d 36d8 4a3d a638 193d 8af7 2c3d
000001c0: 7e60 183d 0293 583d 0e4e 613d 2493 383d
000001d0: 3cf9 473d e9e0 3d3d 10bf 4a3d cb6f 3c3d
000001e0: d86a 243d 67ca 2b3d 9e32 143d bf83 273d
000001f0: 2ba2 233d 9a0d 373d f1ea 1c3d dc67 1f3d
00000200: b870 403d baeb 593d 824a 4c3d 089b 333d
00000210: 0549 1d3d 9c26 3e3d f0ec 2e3d 7d7c 4f3d
00000220: d906 2c3d 5650 2a3d bf4f 2c3d 1d4f 143d
00000230: 3894 503d 7134 3f3d 601b fd3c 42a9 073d

conv2d_reparameterization_Independentconv2d_reparameterization_Normal/sample/conv2d_reparameterization_Normal/sample/add_1;sequential_1/conv2d_reparameterization/StatefulPartitionedCall/conv2d_reparameterization_Independentconv2d_reparameterization_Normal/sample/conv2d_reparameterization_Normal/sample/add_1 f4 [1, 3, 3, 1, 16]
-0.23448187 0.014096999 0.24714664 -0.12653518 -0.11516629 -0.24726057 0.24516474 0.315292
0.02909897 -0.18243574 0.034973588 -0.12448869 0.23876604 -0.009266944 0.032394625 0.14227413
0.15170506 -0.11984146 0.28839993 0.10019846 -0.44978258 -0.26897013 0.22761989 -0.14260183
0.29282743 -0.37658662 -0.15110183 0.30861014 0.16970156 -0.03798128 -0.39968866 -0.20663826
-0.10175505 -0.21530066 0.124195226 0.10555645 -0.30988324 0.09827848 0.04410911 -0.21259522
0.08689186 0.06090857 -0.1623896 0.19768815 0.0429013 -0.36746934 -0.44094387 -0.05167304
-0.13921624 0.13069487 -0.31221372 0.09697768 -0.31697506 -0.12705636 -0.06947442 0.15128484
0.16312568 0.010966872 0.068583556 -0.26190662 0.17470002 -0.07986434 0.08109741 0.23740758
0.24737738 -0.08531214 -0.16300187 0.007258208 -0.053755883 0.4330153 0.2379084 -0.32306263
0.22725342 0.008319192 -0.057534155 -0.024952423 0.1694473 -0.3014816 0.11004968 0.19431679
0.070436455 -0.30800226 -0.25257963 -0.01789182 -0.062645 0.110495836 0.13454513 -0.061496697
-0.27422184 0.27416432 -0.25873417 0.30025125 0.0014894336 -0.21745165 -0.29031152 0.35046065
0.037906885 0.1767896 -0.102247305 0.018250722 -0.21428137 -0.028820284 -0.5719269 0.20251264
0.33349904 0.17357141 0.13583845 -0.30187136 -0.121701375 -0.07314067 0.18980631 0.0137418
0.2911331 0.03475358 -0.36059242 0.012276842 0.055480752 0.071876734 -0.24054433 -0.3604445
-0.047324892 0.17061687 0.37594327 -0.13890585 -0.1158105 0.04954972 0.22741945 -0.11578527
-0.063502565 -0.20223849 -0.042652495 0.15929498 0.29398108 -0.19117102 -0.024773307 0.03819009
-0.4627394 -0.08906391 0.065491825 0.123706974 -0.31183293 0.22095147 0.14937858 0.069506094
00000000: 041c 70be 19f7 663c 0214 7d3e 7092 01be
00000010: 4edc ebbd e031 7dbe 770c 7b3e f46d a13e
00000020: f760 ee3c 6fd0 3abe 7740 0f3d edf3 febd
00000030: 167f 743e 61d4 17bc 3ab0 043d 4fb0 113e
00000040: 9258 1b3e 706f f5bd 28a9 933e da34 cd3d
00000050: e749 e6be 74b6 89be 3015 693e 3706 12be
00000060: 7aed 953e f6cf c0be 70ba 1abe 2602 9e3e
00000070: 3fc6 2d3e 4292 1bbd fea3 ccbe fb98 53be
00000080: f464 d0bd c777 5cbe 115a fe3d fb2d d83d
00000090: 04a9 9ebe 3a46 c93d c1ab 343d 90b2 59be
000000a0: 5cf4 b13d 447b 793d 7649 26be c36e 4a3e
000000b0: 46b9 2f3d f124 bcbe 65c3 e1be 1ca7 53bd
000000c0: b48e 0ebe e0d4 053e 7ada 9fbe 3c9c c63d
000000d0: 8e4a a2be 101b 02be 9b48 8ebd 6aea 1a3e
000000e0: 6b0a 273e 65ae 333c 8975 8c3d a018 86be
000000f0: 90e4 323e ea8f a3bd 6616 a63d f91a 733e
00000100: 7f50 7d3e 22b8 aebd f6e9 26be 43d6 ed3b
00000110: 212f 5cbd 2eb4 dd3e 429e 733e 7768 a5be
00000120: 1fb5 683e 384d 083c efa8 6bbd 0669 ccbc
00000130: 9883 2d3e cc5b 9abe ba61 e13d fbfa 463e
00000140: fd40 903d 79b2 9dbe 1e52 81be de91 92bc
00000150: 064c 80bd a44b e23d 33c6 093e f6e3 7bbd
00000160: ce66 8cbe 445f 8c3e ce78 84be 88ba 993e
00000170: 1939 c33a a5ab 5ebe b6a3 94be 946f b33e
00000180: 4044 1b3d 5508 353e 0967 d1bd 8a82 953c
00000190: 936c 5bbe 8418 ecbc cd69 12bf 795f 4f3e
000001a0: 63c0 aa3e b4bc 313e 3c19 0b3e e28e 9abe
000001b0: 923e f9bd c7ca 95bd 965c 423e 4925 613c
000001c0: 660f 953e c559 0e3d 929f b8be cf24 493c
000001d0: c93f 633d 1c34 933d 4151 76be 2e8c b8be
000001e0: bfd7 41bd 30b6 2e3e a37b c03e 563d 0ebe
000001f0: 0e2e edbd a6f4 4a3d a5e0 683e d420 edbd
00000200: a20d 82bd 9b17 4fbe 62b4 2ebd 391e 233e
00000210: b084 963e 56c2 43be 64f1 cabc 366d 1c3d
00000220: 2eec ecbe 2467 b6bd 9420 863d 155a fd3d
00000230: 91a8 9fbe 1a41 623e b3f6 183e 3659 8e3d

conv2d_reparameterization_1_Independentconv2d_reparameterization_1_Normal/sample/conv2d_reparameterization_1_Normal/sample/mul;sequential_1/conv2d_reparameterization_1/StatefulPartitionedCall/conv2d_reparameterization_1_Independentconv2d_reparameterization_1_Normal/sample/conv2d_reparameterization_1_Normal/sample/mul f4 [1, 3, 3, 16, 32]
0.07474526 0.059102565 0.058852237 0.052650597 0.08262649 0.20019002 0.11118799 0.0747603
0.111974 0.09701247 0.075037695 0.079933085 0.10563649 0.073191755 0.07407028 0.06429054
0.09887867 0.09520437 0.109098546 0.093817785 0.0694373 0.08130037 0.06810181 0.11531775
0.079458885 0.09121714 0.07807091 0.072511695 0.073464 0.1111028 0.08514891 0.14000826
0.11352814 0.07363741 0.08953935 0.09228277 0.12436387 0.24728727 0.16330752 0.11433839
0.18133372 0.16309233 0.11668892 0.12398932 0.16465427 0.11686411 0.14405061 0.10406903
0.14379321 0.13750382 0.18003662 0.1619775 0.10562531 0.14471152 0.12086255 0.19222085
0.11235151 0.16270062 0.1134416 0.12608723 0.08837084 0.17629303 0.13293123 0.19187877
0.11588205 0.087196395 0.09483132 0.095733844 0.117049135 0.20512636 0.14413205 0.119425766
0.1505591 0.13317056 0.11147875 0.1151998 0.14071019 0.11044426 0.14280838 0.10655191
0.10604022 0.13800713 0.19770111 0.15155178 0.107253514 0.13626061 0.12987216 0.15323211
0.115626425 0.15733106 0.12067307 0.111132935 0.10466826 0.14478557 0.12803155 0.13840365
0.07944275 0.06626452 0.07222377 0.061263323 0.08508598 0.21125418 0.11848477 0.08778055
0.13969754 0.11002481 0.08225099 0.087334044 0.1263352 0.089881085 0.10117468 0.07141604
0.09654256 0.10438426 0.15656424 0.11831316 0.07388594 0.10332449 0.085005455 0.13105774
0.07719396 0.11431637 0.09163402 0.08426788 0.07382345 0.11797508 0.0995493 0.13938065
0.09754434 0.067280225 0.08730008 0.079888545 0.10359519 0.19122216 0.12117964 0.105810285
0.13335545 0.11346866 0.091680996 0.09676507 0.12935781 0.09583029 0.110278904 0.09036215
0.10227689 0.11647992 0.14666083 0.12700804 0.07993185 0.11479406 0.09378351 0.13269663
0.09595345 0.12630093 0.10322517 0.09704589 0.09574497 0.11960531 0.12003513 0.13759054
0.10496772 0.07449719 0.08212298 0.06749539 0.102661155 0.26302317 0.16021094 0.108895645
0.1625597 0.1353193 0.10437179 0.11396951 0.15969199 0.094218925 0.12095766 0.105260424
0.14105643 0.13155188 0.18593426 0.14996944 0.08988828 0.11613795 0.097885385 0.1898592
0.09925989 0.14282659 0.11219839 0.10856395 0.08674141 0.15622815 0.11385465 0.18767108
0.08062045 0.05105256 0.07752904 0.06966722 0.08898606 0.14316683 0.09399992 0.07786126
0.10273456 0.08521814 0.069663145 0.10831419 0.094610855 0.092257954 0.112871505 0.073750876
0.08452527 0.090730466 0.12700415 0.11341443 0.07624277 0.093536995 0.09158313 0.104544796
0.083165444 0.12711552 0.081262864 0.089054815 0.07849208 0.0825132 0.08506167 0.09397358
0.12092152 0.086345084 0.115093894 0.083913565 0.10104613 0.13964121 0.115499705 0.13464041
0.113942266 0.09616528 0.109388135 0.09995075 0.11351348 0.11847857 0.121831864 0.09157412
0.10925338 0.10782718 0.11217759 0.116167285 0.100150794 0.11045741 0.10586009 0.1252708
0.12882194 0.13309729 0.13519025 0.110726826 0.10288665 0.10642968 0.11685672 0.10856242
00000000: 0b14 993d 8815 723d 0b0f 713d 27a8 573d
00000010: 1438 a93d 9dfe 4c3e 87b6 e33d ee1b 993d
00000020: a052 e53d 79ae c63d 5dad 993d f5b3 a33d
00000030: f257 d83d 8fe5 953d 29b2 973d c2aa 833d
00000040: e680 ca3d 82fa c23d 0f6f df3d 8a23 c03d
00000050: 2535 8e3d cf80 a63d f678 8b3d b62b ec3d
00000060: 57bb a23d 0dd0 ba3d a4e3 9f3d 0381 943d
00000070: 4b74 963d dd89 e33d 8d62 ae3d 535e 0f3e
00000080: 7181 e83d 36cf 963d 6860 b73d c0fe bc3d
00000090: 7cb2 fe3d e038 7d3e 163a 273e 3f2a ea3d
000000a0: 8caf 393e ad01 273e 9afa ee3d 1dee fd3d
000000b0: 219b 283e 7356 ef3d 0182 133e 2522 d53d
000000c0: 873e 133e cdcd 0c3e 855b 383e 6edd 253e
000000d0: 1552 d83d 422f 143e c986 f73d 8bd5 443e
000000e0: 8c18 e63d fe9a 263e 1254 e83d 031d 013e
000000f0: c5fb b43d 2986 343e 201f 083e de7b 443e
00000100: 9153 ed3d 0694 b23d ec36 c23d 1b10 c43d
00000110: 75b7 ef3d a50c 523e 5a97 133e 7f95 f43d
00000120: 2a2c 1a3e dd5d 083e f94e e43d dfed eb3d
00000130: 5516 103e 9a30 e23d 5c3c 123e e337 da3d
00000140: 9d2b d93d be51 0d3e 2972 4a3e 6430 1b3e
00000150: bba7 db3d e787 0b3e 35fd 043e e1e8 1c3e
00000160: 8ccd ec3d 651b 213e 7123 f73d aa99 e33d
00000170: 505c d63d ab42 143e b41a 033e b0b9 0d3e
00000180: e1b2 a23d b1b5 873d 0eea 933d 40ef 7a3d
00000190: 8f41 ae3d 0453 583e 25a8 f23d 4ac6 b33d
000001a0: df0c 0f3e b054 e13d 3573 a83d 31dc b23d
000001b0: 045e 013e 9313 b83d ac34 cf3d 9342 923d
000001c0: 1bb8 c53d 6ac7 d53d 6052 203e 2c4e f23d
000001d0: 8351 973d ca9b d33d 5717 ae3d 0034 063e
000001e0: de17 9e3d b31e ea3d 9eaa bb3d a394 ac3d
000001f0: c030 973d eb9c f13d 81e0 cb3d cdb9 0e3e
00000200: 54c5 c73d 37ca 893d 62ca b23d 9b9c a33d
00000210: b729 d43d becf 433e 082d f83d 10b3 d83d
00000220: 558e 083e 4262 e83d 3fc3 bb3d c42c c63d
00000230: 6076 043e ac42 c43d e8d9 e13d ca0f b93d
00000240: 8c76 d13d 068d ee3d 422e 163e 650e 023e
00000250: 4fb3 a33d 2619 eb3d 9211 c03d a0e1 073e
00000260: 3e83 c43d 0855 013e b867 d33d ffbf c63d
00000270: f015 c43d a1f3 f43d fad4 f53d 89e4 0c3e
00000280: 51f9 d63d fc91 983d 1830 a83d 063b 8a3d
00000290: 0340 d23d f9aa 863e 560e 243e ae04 df3d
000002a0: 0d76 263e 2591 0a3e e1c0 d53d d968 e93d
000002b0: 4c86 233e daf5 c03d a6b8 f73d c792 d73d
000002c0: 1971 103e 89b5 063e 8d65 3e3e 9791 193e
000002d0: 5917 b83d bcd9 ed3d 2278 c83d 736a 423e
000002e0: c548 cb3d 2241 123e 45c8 e53d c756 de3d
000002f0: 7ba5 b13d 46fa 1f3e a02c e93d d92c 403e
00000300: 561c a53d 7d1c 513d 8cc7 9e3d b0ad 8e3d
00000310: 533e b63d 539a 123e 0883 c03d b975 9f3d
00000320: 7f66 d23d d986 ae3d 8dab 8e3d d4d3 dd3d
00000330: 56c3 c13d bdf1 bc3d 2d29 e73d b30a 973d
00000340: 961b ad3d e5d0 b93d 600d 023e d345 e83d
00000350: 2b25 9c3d 5390 bf3d f08f bb3d 951b d63d
00000360: a552 aa3d 922a 023e 256d a63d 5f62 b63d
00000370: 75c0 a03d aefc a83d d034 ae3d 3875 c03d
00000380: b4a5 f73d b1d5 b03d 59b6 eb3d e0da ab3d
00000390: 46f1 ce3d 1bfe 0e3e 1c8b ec3d 2ddf 093e
000003a0: 905a e93d 4df2 c43d e306 e03d fbb2 cc3d
000003b0: c179 e83d e4a4 f23d fc82 f93d 368b bb3d
000003c0: 3cc0 df3d 7fd4 dc3d 5dbd e53d 1de9 ed3d
000003d0: dc1b cd3d 7f37 e23d 2dcd d83d fd46 003e
000003e0: e6e9 033e a84a 083e 506f 0a3e bfc4 e23d
000003f0: 3cb6 d23d cef7 d93d 9352 ef3d f955 de3d

conv2d_reparameterization_1_Independentconv2d_reparameterization_1_Normal/sample/conv2d_reparameterization_1_Normal/sample/add_1;sequential_1/conv2d_reparameterization_1/StatefulPartitionedCall/conv2d_reparameterization_1_Independentconv2d_reparameterization_1_Normal/sample/conv2d_reparameterization_1_Normal/sample/add_1 f4 [1, 3, 3, 16, 32]
0.10291688 0.051420175 -0.038420223 0.14972018 0.2052125 -0.32328013 -0.24329144 -0.09549115
-0.21955983 0.08466162 -0.044259522 -0.11121343 -0.1905292 -0.10998005 -0.16080756 -0.033913575
-0.02220805 -0.06283739 -0.20779862 -0.20235538 -0.055542905 0.104626365 0.039932843 -0.33829135
0.053630795 -0.12053564 -0.08481729 0.06896711 0.059884667 -0.053134438 0.031601705 -0.13617548
0.049270213 -0.24702242 0.16411248 0.07254253 -0.077945545 0.04773677 0.05236576 0.0038632187
0.12167606 -0.042046707 0.058529414 0.18068759 0.04517761 -0.077629514 0.24317642 0.12834519
0.11959699 0.19769624 0.067962244 0.013843908 0.267793 0.24655126 0.29788566 0.04123532
-0.12144381 -0.09225656 -0.053123236 0.16470365 0.11295821 -0.022599394 0.0849724 0.22308606
-0.11310389 0.038757138 -0.15352765 -0.1330096 0.04778388 0.0067390776 0.024409246 -0.13283454
-0.15384738 0.12283664 -0.116780184 0.23260292 0.22760442 -0.17054817 0.065850824 -0.13807663
0.11967641 0.1682411 0.056011293 0.103712626 -0.22009593 -0.18694265 -0.025548682 0.16523017
-0.06991536 0.051113788 0.0049468805 -0.23217444 -0.18654205 0.1325307 0.007912191 0.24502082
0.11656981 0.18718597 0.033677615 0.108838744 0.045836605 -0.19236097 -0.047255337 -0.08688422
-0.08922253 0.09879032 0.10411383 -0.11678553 -0.08118447 0.010064226 -0.08060448 0.07108901
0.0040246984 -0.12668245 -0.04369667 -0.112888046 -0.01483159 -0.03410533 -0.17311616 -0.17939691
-0.28858793 0.16282451 -0.06273713 -0.0007955046 0.04317578 0.17981294 -0.09608059 -0.36902064
-0.16626588 -0.30172905 -0.10888606 -0.1789782 -0.07334661 -0.011055109 -0.02646393 -0.07805104
0.0838785 -0.287174 -0.08126588 0.129931 -0.10398032 0.05203617 0.2170135 -0.08737145
-0.11865841 -0.01438392 -0.0116559835 -0.008533509 -0.121150695 -0.14574146 -0.02973373 0.06503443
-0.0621366 0.0059081675 -0.12629572 -0.122745655 -0.095388375 0.028273439 0.09398745 0.06167467
-0.18164091 0.14178701 0.08682451 0.23457351 0.05855995 -0.1738064 -0.041380167 0.07712132
-0.15708768 -0.053144254 -0.014688984 -0.13776223 -0.22243364 0.00018732302 -0.07329062 -0.061542846
-0.08141606 -0.1533884 -0.1541121 -0.04108344 0.008473969 -0.09160093 -0.025045158 -0.32711676
0.21441293 -0.18154246 -0.1096808 -0.11699349 0.024727816 -0.07580617 0.09204936 -0.23602858
-0.14498234 0.19643866 -0.08256795 -0.07600521 -0.098950185 -0.22816454 -0.11531968 0.06954278
-0.16881411 0.17525303 0.17615175 -0.33430514 0.1858946 -0.17596696 -0.0830417 -0.09784755
-0.049560905 -0.10345485 -0.12894088 -0.2508682 -0.12112066 -0.17016044 -0.10864502 -0.023779118
0.11789092 -0.24210772 0.023867453 -0.029376822 -0.18420957 0.062460553 -0.10332618 -0.057457734
-0.07909197 0.02489677 0.04295667 0.009769008 0.18262248 -0.0175155 0.028895777 -0.34894055
0.058955982 0.26376906 -0.119783685 -0.0726841 -0.032864466 0.10655628 0.06997004 0.06043515
0.03501337 0.10719114 -0.03481609 0.0976464 0.16385101 0.0034158367 -0.018607968 -0.10787378
-0.2485626 0.044976335 -0.21596128 0.17521027 0.045930047 0.07523151 -0.07210487 0.17178452
00000000: 16c6 d23d f69d 523d 865e 1dbd 3f50 193e
00000010: 3a23 523e f984 a5be 6421 79be dd90 c3bd
00000020: 4bd4 60be 1263 ad3d 7949 35bd dec3 e3bd
00000030: 161a 43be 383d e1bd bdaa 24be f6e8 0abd
00000040: a8ed b5bc e4b0 80bd 29c9 54be 4036 4fbe
00000050: f580 63bd 5946 d63d 9f90 233d 8634 adbe
00000060: f7ab 5b3d 64db f6bd b0b4 adbd a13e 8d3d
00000070: a049 753d 7fa3 59bd ca70 013d 9671 0bbe
00000080: 90cf 493d 72f3 7cbe 1a0d 283e 2e91 943d
00000090: eaa1 9fbd a287 433d 7b7d 563d 0e2e 7d3b
000000a0: 4c31 f93d 2b39 2cbd 8abc 6f3d 2b06 393e
000000b0: 280c 393d 39fc 9ebd 3d03 793e ec6c 033e
000000c0: 44ef f43d e270 4a3e ca2f 8b3d 8fd1 623c
000000d0: 2a1c 893e ef77 7c3e 7884 983e 5ee6 283d
000000e0: 88b7 f8bd 02f1 bcbd c097 59bd 13a8 283e
000000f0: a256 e73d 5d22 b9bc 0206 ae3d ac70 643e
00000100: 03a3 e7bd cebf 1e3d 5a36 1dbe ab33 08be
00000110: 08b9 433d 7bd3 dc3b e6f5 c73c c705 08be
00000120: 2b8a 1dbe c791 fb3d 732a efbd 762f 6e3e
00000130: 2211 693e 2ea4 2ebe ccdc 863d f663 0dbe
00000140: e818 f53d 6547 2c3e 196c 653d 4967 d43d
00000150: d460 61be e56d 3fbe 784b d1bc 1932 293e
00000160: c92f 8fbd b15c 513d 7119 a23b 23bf 6dbe
00000170: e104 3fbe 21b6 073e 22a2 013c bde6 7a3e
00000180: 27bc ee3d aead 3f3e 8af1 093d d9e6 de3d
00000190: 2abf 3b3d 46fa 44be d08e 41bd 5bf0 b1bd
000001a0: 4dba b6bd 9452 ca3d a239 d53d 402d efbd
000001b0: 0b44 a6bd 6ce4 243c f613 a5bd 1d97 913d
000001c0: 9ee1 833b 0bb9 01be 48fb 32bd d931 e7bd
000001d0: 3200 73bc 08b2 0bbd 5d45 31be d3b3 37be
000001e0: ccc1 93be 78bb 263e 537c 80bd 6989 50ba
000001f0: 16d9 303d e220 383e e6c5 c4bd 46f0 bcbe
00000200: 9a41 2abe 3b7c 9abe a8ff debd 1046 37be
00000210: bf36 96bd 7d20 35bc e2ca d8bc 39d9 9fbd
00000220: 7ec8 ab3d 7808 93be ba6e a6bd a20c 053e
00000230: a2f3 d4bd e123 553d c938 5e3e ceef b2bd
00000240: 2e03 f3bd 88aa 6bbc bdf8 3ebc 22d0 0bbc
00000250: db1d f8bd 403d 15be 2794 f3bc c530 853d
00000260: f382 7ebd 4d99 c13b aa53 01be 1362 fbbd
00000270: fb5a c3bd b39d e73c 7e7c c03d 949e 7c3d
00000280: 1300 3abe 9d30 113e 0cd1 b13d 0a34 703e
00000290: 8fdc 6f3d 4efa 31be 407e 29bd c8f1 9d3d
000002a0: 98db 20be caad 59bd 10aa 70bc 8b11 0dbe
000002b0: a5c5 63be 246c 4439 6519 96bd 5a14 7cbd
000002c0: 77bd a6bd d911 1dbe 90cf 1dbe 1c47 28bd
000002d0: 67d6 0a3c 4599 bbbd 812b cdbc d97b a7be
000002e0: 108f 5b3e 44e6 39be 54a0 e0bd 489a efbd
000002f0: fd91 ca3c 4440 9bbd 6084 bc3d 7ab1 71be
00000300: 4076 14be 3727 493e 6319 a9bd 9fa8 9bbd
00000310: 65a6 cabd f7a3 69be b92c ecbd 726c 8e3d
00000320: 9bdd 2cbe 8875 333e 2061 343e 0b2a abbe
00000330: 275b 3e3e af30 34be c411 aabd 4c64 c8bd
00000340: 6000 4bbd 23e0 d3bd 1409 04be cc71 80be
00000350: 1c0e f8bd 8a3e 2ebe 4881 debd 6dcc c2bc
00000360: cb70 f13d 16eb 77be ad85 c33c a9a7 f0bc
00000370: 6fa1 3cbe a3d6 7f3d ad9c d3bd cd58 6bbd
00000380: f9fa a1bd 50f4 cb3c 55f3 2f3d 300e 203c
00000390: 6301 3b3e aa7c 8fbc d6b6 ec3c 56a8 b2be
000003a0: d47b 713d bd0c 873e 2651 f5bd 67db 94bd
000003b0: e49c 06bd 2e3a da3d 744c 8f3d d98a 773d
000003c0: 2e6a 0f3d 0787 db3d 519b 0ebd d6fa c73d
000003d0: 8fc8 273e 3bdc 5f3b bd6f 98bc eeec dcbd
000003e0: 3287 7ebe 1b39 383d f424 5dbe 526a 333e
000003f0: 2521 3c3d fa12 9a3d b8ab 93bd 48e8 2f3e
