bayesian_cnn.tflite (tflite, 836084 bytes, 24 tensors)

sequential_1/dense_reparameterization/56980 f4 [10]
0	0x3ddf6f32	0.10909881
1	0x3d0f5a0d	0.03499799
2	0xbc514ebc	-0.012775119
3	0xbdf482b2	-0.11938991
4	0xbd3b606d	-0.045746256
5	0xbbb5f301	-0.00555265
6	0x3db4ef6b	0.08834728
7	0xbebd7c69	-0.3700898
8	0xbd41f93e	-0.047356836
9	0x3e88418e	0.26612514

sequential_1/dense_reparameterization/56976 f4 [128, 10]
0	0x3db4a9a6	0.0882142
1	0xbe2f4de8	-0.17119563
2	0xbcd60699	-0.026126193
3	0x3de390e3	0.11111619
4	0xbdcf7757	-0.10130184
5	0x3e174929	0.14774002
6	0x3e1aa188	0.15100682
7	0xbe270802	-0.16311648
8	0xbe000642	-0.12502387
9	0xbd041a91	-0.0322519
10	0x3cfa48e9	0.030552344
11	0x3db6ba71	0.089222796
12	0xbd0b4299	-0.03399906
13	0x3dde9513	0.108682774
14	0x3e446186	0.19177827
15	0xbd0ccced	-0.03437512
16	0xbdfb37e6	-0.12266521
17	0xbd91055e	-0.07081102
18	0xbd248439	-0.04016516
19	0xbcc15baa	-0.02360328
20	0xbe40ad9a	-0.18816224
21	0xbe286c97	-0.16447674
22	0xbdac1b8a	-0.0840369
23	0xb896630a	-7.171005e-05
24	0x3dc542c0	0.09631872
25	0x3e0ca60e	0.1373522
26	0xbec521f8	-0.3850248
27	0x3d21129c	0.039324388
28	0xbd95278a	-0.07282932
29	0x3e00c9a8	0.12576926
30	0xbc3d0fde	-0.011539428
31	0xbe84e063	-0.25952443
32	0x3e0ce030	0.13757396
33	0x3e3c533c	0.18391126
34	0x3e397125	0.18109567
35	0xbdc88d5a	-0.09792586
36	0xbd647413	-0.05577476
37	0xbe1a7411	-0.15083338
38	0x3c8493bb	0.016183725
39	0x3dcebbef	0.10094439
40	0x3a8b444b	0.0010625211
41	0xbddc73e9	-0.107642956
42	0xbe0a071c	-0.13479275
43	0xbdf21570	-0.11820495
44	0x3d91e8ec	0.071245044
45	0xbd716a20	-0.0589391
46	0x3dc2332c	0.094824165
47	0xba002025	-0.00048876024
48	0xbca7309b	-0.02040892
49	0xbdda7b47	-0.106680445
50	0x3d8af5ed	0.06785188
51	0x3d142b70	0.036174238
52	0xbc4c3ca1	-0.012465627
53	0x3c271e4b	0.0102000935
54	0xbe6d5b7e	-0.23179433
55	0xbd9a8c09	-0.07546241
56	0xbe31d865	-0.17367704
57	0xbbf1ee34	-0.0073831324
58	0x3d1d182f	0.03835314
59	0xbe817756	-0.2528636
60	0xbd1b1eff	-0.037871357
61	0x3e6f8534	0.23390657
62	0xbc61576b	-0.013753752
63	0x3e18f4e9	0.14937176
64	0x3d73be52	0.059507675
65	0xbcf94e99	-0.030432986
66	0xbeb3d2c8	-0.3512175
67	0x3e597b3f	0.21238421
68	0xbdb08b51	-0.086203225
69	0x3d217514	0.039418295
70	0xbe5b491a	-0.21414605
71	0x3c317473	0.010830986
72	0x3e1d47c6	0.1535941
73	0x3d5f97f8	0.054588288
74	0x3d699c7d	0.057034004
75	0xbd1061d1	-0.035249535
76	0x3d325271	0.043535654
77	0x3de3ffbc	0.11132762
78	0xbcddae7f	-0.027060745
79	0xbe2fec18	-0.17179906
80	0x3df27620	0.11838937
81	0xbe3efcc3	-0.18651108
82	0xbd25a83e	-0.04044365
83	0xbdadc8d6	-0.08485572
84	0xbe6c0a3e	-0.23050782
85	0x3e0ba60d	0.13637562
86	0xbd028b6d	-0.031871248
87	0x3d535595	0.05159529
88	0x3d4cf795	0.0500408
89	0xbd366395	-0.044528563
90	0x3df5bd71	0.11999024
91	0xbdbfd581	-0.093668945
92	0x3e086f13	0.13323621
93	0x3da7565f	0.08170771
94	0xbdbcd963	-0.09221151
95	0xbdb2aff2	-0.08724965
96	0xbcf4dfc0	-0.029891849
97	0x3e51d6a6	0.20492038
98	0x3d978195	0.07397763
99	0x3c310fdb	0.010807003
100	0x3de994da	0.11405344
101	0xbda29c1a	-0.0793993
102	0xbe493f22	-0.1965299
103	0x3e45c74b	0.19314305
104	0x3c8132c8	0.015771285
105	0xbe39384e	-0.18087885
106	0x3dfdc2c8	0.12390667
107	0xbe8a308b	-0.2699016
108	0xbcc29d68	-0.023756698
109	0xbe8eebb3	-0.279142
110	0xbbd9b82d	-0.00664427
111	0xbb15e712	-0.0022873324
112	0x3df50e78	0.1196565
113	0x3d2ff1f2	0.042955346
114	0xbe354474	-0.17701894
115	0x3d9cace1	0.076501615
116	0x3d11fa02	0.035638817
117	0xbd1d1aff	-0.038355824
118	0x3e284bce	0.16435167
119	0x3dd2fd5a	0.10302229
120	0x3e28ba97	0.16477428
121	0x3c61b2cf	0.013775541
122	0xbd812414	-0.063057095
123	0xbd056d9f	-0.032575246
124	0xbdecc638	-0.11561245
125	0xbe2d76e8	-0.1693989
126	0xbe321660	-0.17391348
127	0x3d998a3f	0.074970715
128	0xbcbb53ac	-0.022867046
129	0xbd483405	-0.048877735
130	0x3e9f4fdb	0.31115612
131	0x3dc50de4	0.0962179
132	0xbe97f1cf	-0.29676673
133	0xbe126d41	-0.1429949
134	0x3daf5926	0.085619256
135	0xbd26e5ba	-0.040746428
136	0x3da0bd0f	0.0784856
137	0xbe00869d	-0.12551351
138	0xbdb2e841	-0.08735705
139	0x3e0c1271	0.1367891
140	0xbdae88e3	-0.08522203
141	0x3daf2e8c	0.085538
142	0x3e39d659	0.18148173
143	0x3e0b7fc7	0.13622962
144	0xbd6ca8d0	-0.05777818
145	0xbe5ea8c4	-0.21744066
146	0xbd2b3f89	-0.04180864
147	0xbdb937dc	-0.090438575
148	0x3be6a3ee	0.007038585
149	0xbda8d90f	-0.08244526
150	0xbdcdb26c	-0.10043797
151	0x3d9e83dd	0.07739995
152	0x3e0a0e0b	0.1348192
153	0xbc810e08	-0.015753761
154	0xbe3c369e	-0.1838021
155	0xbe24b883	-0.1608601
156	0xbc5616c2	-0.013066949
157	0x397b547d	0.000239687
158	0x3eabc876	0.33551377
159	0xbe11fe45	-0.14257152
160	0xbd4e306e	-0.050339155
161	0x3e267581	0.16255762
162	0x3e3cafe1	0.18426467
163	0xbd766cce	-0.060162358
164	0xbcfd73c0	-0.030938983
165	0xbcc5aea5	-0.024131129
166	0xbe1bcff7	-0.15216051
167	0x3e80d130	0.25159597
168	0x3d448aec	0.04798405
169	0x3c388fb9	0.011264735
170	0xbda48d90	-0.080348134
171	0xbdb6cce9	-0.08925802
172	0x3d46455e	0.048405997
173	0x3e0b383d	0.13595672
174	0xbe06d67a	-0.13167754
175	0xbd044949	-0.032296453
176	0x3df69f8d	0.12042151
177	0xbe45d439	-0.19319238
178	0x3e130160	0.14355993
179	0xbe2cbf9e	-0.16869971
180	0x3dcf9d89	0.10137469
181	0xbe0ff844	-0.1405955
182	0xbe472560	-0.19447851
183	0x3e10b031	0.14129712
184	0xbd822cc5	-0.06356195
185	0x3e483301	0.19550706
186	0x3d8a3cf9	0.06749911
187	0xbdcc142f	-0.09964787
188	0xbd0d7236	-0.03453275
189	0xbdfb3a35	-0.122669615
190	0xbdbceb08	-0.09224516
191	0x3c4ceb50	0.012507275
192	0x3d042b14	0.032267645
193	0x3daa2385	0.08307556
194	0xbd98902c	-0.074493736
195	0x3deb7b41	0.11498118
196	0xbe006b36	-0.12540898
197	0x3c63eaf0	0.013910994
198	0xbdbbf159	-0.09176893
199	0x3d0adacf	0.03390008
200	0xbdb2acb6	-0.08724348
201	0x3e8ce094	0.2751509
202	0xbe4a650a	-0.19765106
203	0xbe1fe1a7	-0.15613423
204	0x3d3f4ccc	0.0467041
205	0x3e246bfb	0.16056816
206	0x3e2765a8	0.16347373
207	0xbe566239	-0.20935906
208	0x3ddd397a	0.108019784
209	0xbe069ffc	-0.13146967
210	0xbe537ebe	-0.20653817
211	0x3dc774f7	0.09739106
212	0xbe0372fa	-0.12836829
213	0x3cade041	0.021225097
214	0xbd117a1f	-0.035516854
215	0xbe726289	-0.236704
216	0xbb76cf91	-0.003766034
217	0x3e0d3523	0.13789801
218	0x3e4367bf	0.19082545
219	0x3e2bd203	0.16779332
220	0x3dc12d47	0.09432464
221	0xbd7bc532	-0.061467357
222	0xbd9f4a22	-0.077778116
223	0xbcf7b327	-0.030236794
224	0x3ca303ba	0.019899238
225	0xbb1745a3	-0.0023082278
226	0x3db1ee3e	0.08688019
227	0x3d2d8d85	0.04237129
228	0x3e12ebfa	0.1434783
229	0x3dd4cbdc	0.103904456
230	0xbe0842ea	-0.13306776
231	0x3e52b7b2	0.20577887
232	0x3e3c3b66	0.18382034
233	0x3e022583	0.12709622
234	0xbe36b988	-0.17844212
235	0x3d085d5e	0.033292167
236	0x3d39f817	0.045402613
237	0xbcda7953	-0.02666918
238	0x3d8560b3	0.065125845
239	0xbdcb4d63	-0.0992687
240	0xbb923437	-0.004461791
241	0x39a7e6e5	0.00032024752
242	0x3e2fb1f8	0.17157733
243	0x3dc3f499	0.09568138
244	0x3c68241f	0.014168768
245	0x3e1fdfe5	0.15612753
246	0x3d08c889	0.03339437
247	0xbcef8c1a	-0.02924161
248	0xbd5e14fe	-0.05421924
249	0xbd96bd22	-0.07360293
250	0xbe026e43	-0.12737374
251	0x3e01c5d5	0.12673123
252	0x3e4ad240	0.19806767
253	0x3d92e490	0.07172501
254	0xbcbf8a49	-0.02338137
255	0xbe39ea54	-0.18155795

sequential_1/conv2d_reparameterization_3/56788 f4 [128]
0	0x3a8322ad	0.0010004841
1	0x3c330bf5	0.010928144
2	0x3cf4d50e	0.029886749
3	0x3e568b74	0.20951635
4	0x3e1c8c31	0.15287854
5	0xbda0486e	-0.07826315
6	0xbe02f641	-0.12789251
7	0x3caabd58	0.02084224
8	0x3dc93efc	0.098264664
9	0xbd598138	-0.05310175
10	0x3bdbbb10	0.006705649
11	0xbd4a6d8b	-0.049420875
12	0xbcdeea75	-0.027211407
13	0x3b877956	0.0041343374
14	0xbe2f910b	-0.17145173
15	0x3bfc1550	0.0076929703
16	0xbd8a96dd	-0.06767056
17	0xbd8fffb8	-0.07031196
18	0xbd864387	-0.065558486
19	0x3d195e58	0.03744349
20	0xbdeff617	-0.1171686
21	0x3da6172a	0.08109887
22	0xbe0669e6	-0.13126335
23	0xbd33319a	-0.043748476
24	0xbe11ae45	-0.14226635
25	0x3cf8e5d2	0.030383024
26	0xbd16608b	-0.036713164
27	0x3dc76bbf	0.09737348
28	0xbcd7d03e	-0.026344415
29	0xbddb9dc2	-0.10723449
30	0xbd66dcbc	-0.056362852
31	0x3ca30feb	0.019905051
32	0x3e42ebf1	0.19035317
33	0xbd90c700	-0.07069206
34	0xbc9dbced	-0.019255126
35	0x3d0d21b5	0.034455974
36	0xbdd54800	-0.104141235
37	0xbd6c17df	-0.057639953
38	0xbe394b3b	-0.18095104
39	0xbde4420c	-0.1114541
40	0x3cebefec	0.028800927
41	0xbe4c5628	-0.19954741
42	0xbd6fcb53	-0.058543514
43	0xbce1f334	-0.027581789
44	0xbd131908	-0.035912544
45	0xbd916454	-0.07099214
46	0x3d2a48aa	0.041573204
47	0x3de901b2	0.113772765
48	0xbe4329f6	-0.19058976
49	0xbd9af915	-0.0756704
50	0x3ba14145	0.004921111
51	0x3e114040	0.14184666
52	0xbcd18db3	-0.025580263
53	0x3e136b1a	0.14396325
54	0xbdba2a14	-0.09090057
55	0x3c120384	0.008911971
56	0xbd639395	-0.055560667
57	0x3cf0adbb	0.029379716
58	0xbd3d3ae4	-0.04619874
59	0xbe1462ce	-0.14490816
60	0x3e1851e8	0.14874995
61	0xbe327732	-0.17428282
62	0xbe761783	-0.24032407
63	0xbdfcf284	-0.12350944
64	0xbcca8509	-0.02472164
65	0x3cad48e9	0.02115293
66	0x3d8e6a80	0.06953907
67	0xbc98ec55	-0.01866738
68	0xbe753e7c	-0.23949617
69	0xbdc2612f	-0.094911925
70	0x3d38f87f	0.04515886
71	0xbe18ec97	-0.14934002
72	0xbd9dc632	-0.077038184
73	0x3d625815	0.055259783
74	0xbe2125f0	-0.15737128
75	0xbe3aa689	-0.1822759
76	0x3db78b6c	0.089621395
77	0x3e08fbf4	0.13377362
78	0xbe3d0f13	-0.18462782
79	0x3db2ade9	0.08724577
80	0xbe0579a0	-0.13034678
81	0xbda1ccf1	-0.079004176
82	0x3e1121c4	0.14173037
83	0xbdcb6a6c	-0.09932408
84	0x3d18d121	0.037308816
85	0x3bfd39e8	0.00772785
86	0xbd7e0ae3	-0.0620221
87	0x3b0dd212	0.0021640104
88	0xbd8479da	-0.06468554
89	0x3dd79a69	0.10527498
90	0x3d6ff5ed	0.058584142
91	0xbddd2cb9	-0.10799546
92	0xbd4faadb	-0.05070005
93	0xbe2b0fd8	-0.16705263
94	0xbd8bbd0c	-0.06823167
95	0x3cff298e	0.031147745
96	0x3d183175	0.03715654
97	0x3cc7f7c7	0.024410142
98	0xbba6e264	-0.005092906
99	0x3d2acf72	0.04170174
100	0xbda15553	-0.078776024
101	0x3e4dff28	0.20116866
102	0xbc9e63a3	-0.01933462
103	0xbe80db84	-0.25167477
104	0x3c42dfae	0.01189415
105	0xbce82100	-0.028336048
106	0x3ae47f2d	0.0017432921
107	0xbcb8d865	-0.022564122
108	0xbc09b6dc	-0.0084054135
109	0x3bbdcc51	0.0057921787
110	0xbcf74b8e	-0.030187394
111	0x3e0e340d	0.13887043
112	0x3b4bb7f6	0.003108499
113	0xbda17b95	-0.078848995
114	0xbda7dd9c	-0.081965655
115	0x3e43eab3	0.191325
116	0x3d9a5b90	0.075369954
117	0xbe1350ea	-0.14386335
118	0xbe4f9302	-0.20270923
119	0x3cafddc4	0.02146805
120	0x3e9625fc	0.29325855
121	0x3dfdfc72	0.12401666
122	0xbdc818d7	-0.09770363
123	0xbd380aba	-0.044932105
124	0xbe15fd1d	-0.14647336
125	0x3b2f311b	0.002673215
126	0xbd38f268	-0.04515305
127	0xbd1ed5ab	-0.03877799

sequential_1/conv2d_reparameterization_2/56591 f4 [64]
0	0xbe1045a5	-0.14089067
1	0x3da911a6	0.08255319
2	0xbd4ed869	-0.050499354
3	0xbe0fb5fe	-0.14034268
4	0xbd44fb7d	-0.0480914
5	0xbd8073e2	-0.06272103
6	0x3dc4e2f5	0.09613601
7	0xbd6abacc	-0.05730705
8	0xbd185cb9	-0.037197802
9	0xbd06e73c	-0.032935366
10	0x3dba501f	0.09097313
11	0x3d7c3e12	0.061582632
12	0xbcb14cdc	-0.021643095
13	0xbd134a28	-0.035959393
14	0xbdd7a127	-0.10528784
15	0x3dce3f3f	0.10070657
16	0xbcaebe9b	-0.021331122
17	0xbc36fac8	-0.011168189
18	0xbe11144e	-0.14167902
19	0xbda50036	-0.08056681
20	0x3e368dc2	0.17827514
21	0xbdab2c31	-0.08358038
22	0x3bc3618e	0.005962557
23	0x3e0251ea	0.1272656
24	0x3d6a803e	0.057251208
25	0xbc4ecfc1	-0.012622775
26	0xbe300342	-0.17188743
27	0xbdffd781	-0.12492276
28	0xbd6fa593	-0.058507513
29	0x3d0138ef	0.031548437
30	0x3e4d8fcd	0.20074387
31	0xbd9c6c71	-0.07637871
32	0x3e1bd6b6	0.15218624
33	0xbc7429e1	-0.014902563
34	0xbd64e531	-0.055882636
35	0xbe02997c	-0.12753862
36	0xbd766397	-0.06015357
37	0x3c6c6b7d	0.014429924
38	0xbd326204	-0.043550506
39	0x3d7c1adb	0.06154905
40	0xbdbf76d6	-0.09348838
41	0x3d9b6234	0.0758709
42	0x3c1e8794	0.009675879
43	0xbd984136	-0.07434313
44	0x3c714476	0.014725795
45	0x3c0f7f20	0.008758336
46	0xbc3c7845	-0.011503284
47	0xbca8b96d	-0.02059623
48	0xbe0e9986	-0.13925752
49	0x3cd44295	0.025910655
50	0xbe25eef9	-0.16204442
51	0x3dc77ff5	0.09741203
52	0xbd0893f7	-0.033344235
53	0xbdbe973a	-0.09306188
54	0x3d84986f	0.06474387
55	0xbdb9dcb9	-0.09075303
56	0x3d5a002f	0.05322283
57	0x3cf33a6b	0.029690942
58	0x3ca7e1d2	0.020493422
59	0x3dc68956	0.096941635
60	0xbd86fc56	-0.06591098
61	0xbdee2754	-0.11628595
62	0x3d515f41	0.05111623
63	0xbbdc7faa	-0.006729086

sequential_1/conv2d_reparameterization_1/56394 f4 [32]
0	0xbc7dbbc9	-0.015486666
1	0x3d758f6d	0.059951235
2	0x3e25f6dc	0.1620745
3	0xbe2456e7	-0.16048776
4	0xbd8fa2dd	-0.070134856
5	0xbe16f094	-0.14740211
6	0x3d1f85eb	0.038946074
7	0xbdbcce02	-0.0921898
8	0x3caacbe6	0.02084918
9	0x3df850f7	0.12124818
10	0xbd0ddc89	-0.034634147
11	0xbe039b7f	-0.12852286
12	0xbbc9ea06	-0.006161931
13	0x3d2f7465	0.04283561
14	0xbdbdd309	-0.092687674
15	0xbd20d5f5	-0.039266545
16	0x3d88d37d	0.06680963
17	0xbd8fd8ef	-0.07023799
18	0xbe10d9cb	-0.14145581
19	0x3d56d94c	0.052453324
20	0x3dc5fabf	0.09666967
21	0x3d8a861a	0.06763859
22	0xbe54258b	-0.20717447
23	0xbd5612f2	-0.05226416
24	0x3d25330d	0.04033189
25	0x3ad082cf	0.0015908125
26	0xbe23d710	-0.16000009
27	0xbe4101be	-0.18848321
28	0xbcf8a77e	-0.030353304
29	0xbe11d6ad	-0.14242049
30	0x3ce08142	0.027405385
31	0x3d21c58c	0.039495036

sequential_1/conv2d_reparameterization/56197 f4 [16]
0	0xbda3ed73	-0.08004274
1	0x3d8e376e	0.06944166
2	0x3e03dfc0	0.12878323
3	0xbb251517	-0.0025189572
4	0xbe0c3c53	-0.13694887
5	0xbdc82187	-0.0977202
6	0xbdc77e93	-0.09740939
7	0xb925c2ee	-0.00015808243
8	0x3be9e1cb	0.0071375123
9	0x3bb39423	0.0054803058
10	0xbdba843e	-0.091072544
11	0x3dc25b63	0.09490087
12	0xbe703414	-0.23457366
13	0xbdeddaed	-0.116140224
14	0x3e2b1a25	0.16709192
15	0xbd13b223	-0.036058556

conv2d_reparameterization_Independentconv2d_reparameterization_Normal_1/sample/conv2d_reparameterization_Normal/sample/add;sequential_1/conv2d_reparameterization/StatefulPartitionedCall/conv2d_reparameterization_Independentconv2d_reparameterization_Normal_1/sample/conv2d_reparameterization_Normal/sample/add f4 [16]
0	0x3d29d0e6	0.041458987
1	0x3d506fdd	0.05088793
2	0x3d169f97	0.03677329
3	0x3d471764	0.04860629
4	0x3d48146d	0.048847605
5	0x3d3538fe	0.044243805
6	0x3d32f80c	0.043693587
7	0x3d432cce	0.04765015
8	0x3d1ea138	0.03872797
9	0x3d36416f	0.044495996
10	0x3d4ca2ef	0.049960073
11	0x3d2c156d	0.04201262
12	0x3d312ad8	0.04325375
13	0x3d3bbc2a	0.045833744
14	0x3d35f2ef	0.044421133
15	0x3d4c2284	0.049837604

conv2d_reparameterization_1_Independentconv2d_reparameterization_1_Normal_1/sample/conv2d_reparameterization_1_Normal/sample/add;sequential_1/conv2d_reparameterization_1/StatefulPartitionedCall/conv2d_reparameterization_1_Independentconv2d_reparameterization_1_Normal_1/sample/conv2d_reparameterization_1_Normal/sample/add f4 [32]
0	0x3d521aff	0.051295277
1	0x3d268d32	0.040661998
2	0x3d46ade9	0.048505697
3	0x3d3bac2c	0.045818493
4	0x3d422608	0.04739955
5	0x3d29739a	0.041370012
6	0x3d360806	0.044441245
7	0x3d491b28	0.049098164
8	0x3d3f39d8	0.046686023
9	0x3d359275	0.044329125
10	0x3d4e7ebe	0.05041384
11	0x3d4172d5	0.047228653
12	0x3d4a1e8a	0.04934553
13	0x3d398bfa	0.045299508
14	0x3d402477	0.046909776
15	0x3d31926f	0.04335254
16	0x3d5234b1	0.05131978
17	0x3d3fb482	0.046803005
18	0x3d2ae4ce	0.04172211
19	0x3d31501e	0.043289296
20	0x3d426f49	0.04746941
21	0x3d5f7179	0.054551575
22	0x3d2db6e3	0.042410742
23	0x3d4dea1a	0.050272085
24	0x3d68712e	0.05674856
25	0x3d540dd4	0.051771
26	0x3d2e7657	0.042593326
27	0x3d3e9b3d	0.046534766
28	0x3d3bf65f	0.045889255
29	0x3d207b43	0.03918005
30	0x3d49042a	0.049076237
31	0x3d3e574b	0.046469968

conv2d_reparameterization_2_Independentconv2d_reparameterization_2_Normal_1/sample/conv2d_reparameterization_2_Normal/sample/add;sequential_1/conv2d_reparameterization_2/StatefulPartitionedCall/conv2d_reparameterization_2_Independentconv2d_reparameterization_2_Normal_1/sample/conv2d_reparameterization_2_Normal/sample/add f4 [64]
0	0x3d541c9e	0.051785104
1	0x3d3c59d1	0.045984093
2	0x3d417ab2	0.047236152
3	0x3d5332ad	0.051562
4	0x3d4b5e68	0.04965058
5	0x3d4cbed9	0.049986694
6	0x3d47d38c	0.04878573
7	0x3d3ec1c3	0.046571504
8	0x3d4dd640	0.050253153
9	0x3d3d2b8a	0.0461841
10	0x3d5e406f	0.054260667
11	0x3d31c9f1	0.043405477
12	0x3d51e7bd	0.051246393
13	0x3d5016e8	0.050803095
14	0x3d64915e	0.055802695
15	0x3d4546fd	0.048163403
16	0x3d60e96a	0.0549101
17	0x3d33b13d	0.0438702
18	0x3d5d6269	0.05404893
19	0x3d3044f6	0.043034516
20	0x3d47b9d8	0.04876122
21	0x3d5d8bcd	0.054088403
22	0x3d30c65c	0.04315792
23	0x3d3a81d3	0.045533966
24	0x3d5eec2a	0.054424442
25	0x3d3897f0	0.045066774
26	0x3d346bd9	0.044048164
27	0x3d46a483	0.048496734
28	0x3d201ea5	0.039091725
29	0x3d40d8f0	0.047081888
30	0x3d56b584	0.0524192
31	0x3d5daaa9	0.054117832
32	0x3d3a2b14	0.04545124
33	0x3d456d57	0.048199978
34	0x3d6186bb	0.05506013
35	0x3d3da4b8	0.046299666
36	0x3d2bd610	0.041952193
37	0x3d3f88ab	0.046761196
38	0x3d507132	0.0508892
39	0x3d3e1862	0.046409972
40	0x3d488d2a	0.04896275
41	0x3d4e136c	0.05031149
42	0x3d42f19c	0.047593698
43	0x3d58262d	0.052770782
44	0x3d56b3b6	0.05241748
45	0x3d421012	0.047378607
46	0x3d430382	0.047610767
47	0x3d38dffc	0.045135483
48	0x3d4d7032	0.050155826
49	0x3d3ed0ba	0.046585776
50	0x3d560d26	0.052258633
51	0x3d3fdf94	0.04684408
52	0x3d4a76d7	0.04942974
53	0x3d488701	0.048956875
54	0x3d43ca1c	0.04780017
55	0x3d433214	0.04765518
56	0x3d388b19	0.04505453
57	0x3d40ae4b	0.04704122
58	0x3d271dba	0.040799834
59	0x3d36efe9	0.04466239
60	0x3d59f65e	0.05321347
61	0x3d3bf7db	0.04589067
62	0x3d4ff4d0	0.05077058
63	0x3d5b7dfc	0.053586945

conv2d_reparameterization_3_Independentconv2d_reparameterization_3_Normal_1/sample/conv2d_reparameterization_3_Normal/sample/add;sequential_1/conv2d_reparameterization_3/StatefulPartitionedCall/conv2d_reparameterization_3_Independentconv2d_reparameterization_3_Normal_1/sample/conv2d_reparameterization_3_Normal/sample/add f4 [128]
0	0x3d474525	0.048649926
1	0x3d609467	0.054829028
2	0x3d3bbc1c	0.045833692
3	0x3d5a6890	0.053322375
4	0x3d59770d	0.05309205
5	0x3d4e0f2a	0.05030743
6	0x3d45de60	0.048307776
7	0x3d556d1e	0.052106015
8	0x3d59a9f3	0.05314059
9	0x3d55784a	0.05211667
10	0x3d699b21	0.057032708
11	0x3d535fd9	0.05160508
12	0x3d4892d5	0.048968155
13	0x3d4a1ef9	0.049345944
14	0x3d27efef	0.041000303
15	0x3d67964f	0.05653983
16	0x3d5df1a9	0.054185543
17	0x3d490166	0.0490736
18	0x3d546694	0.05185564
19	0x3d500b34	0.050791934
20	0x3d4e58f6	0.05037781
21	0x3d6827bf	0.05667853
22	0x3d5f09e6	0.0544528
23	0x3d43fb69	0.047847185
24	0x3d56b57d	0.052419174
25	0x3d2d4c23	0.042308938
26	0x3d5503d0	0.05200559
27	0x3d66430a	0.056216277
28	0x3d4b6d96	0.049665056
29	0x3d3e6569	0.04648343
30	0x3d54bb38	0.05193636
31	0x3d509073	0.050919008
32	0x3d58b4ca	0.05290679
33	0x3d5dae66	0.054121397
34	0x3d5e4e65	0.05427398
35	0x3d44334c	0.047900483
36	0x3d4c96b0	0.049948394
37	0x3d419657	0.047262516
38	0x3d51ace4	0.051190272
39	0x3d49a933	0.049233627
40	0x3d496d10	0.049176276
41	0x3d514673	0.051092576
42	0x3d53b08e	0.051682048
43	0x3d616b53	0.055033993
44	0x3d372d0a	0.044720687
45	0x3d3cc482	0.046085842
46	0x3d494aab	0.049143475
47	0x3d500f21	0.050795678
48	0x3d3396ce	0.04384499
49	0x3d4723b9	0.048618052
50	0x3d566659	0.0523437
51	0x3d436ab3	0.04770918
52	0x3d371e77	0.044706788
53	0x3d37159a	0.044698335
54	0x3d492785	0.049109954
55	0x3d43df38	0.0478203
56	0x3d6ee958	0.058328003
57	0x3d562a3e	0.05228638
58	0x3d56cb33	0.05243988
59	0x3d5e8d51	0.05433399
60	0x3d3ab93d	0.045586813
61	0x3d5741bf	0.052552935
62	0x3d533c8a	0.051571406
63	0x3d58ec2d	0.05295961
64	0x3d4fab53	0.050700497
65	0x3d4bf333	0.04979248
66	0x3d49e723	0.049292695
67	0x3d30c9cb	0.043161195
68	0x3d3cafa3	0.046065938
69	0x3d36857f	0.044560906
70	0x3d4843b6	0.0488927
71	0x3d534e0c	0.051588103
72	0x3d4a32f5	0.049365003
73	0x3d39476f	0.04523414
74	0x3d62e07c	0.055389866
75	0x3d593d8a	0.053037204
76	0x3d7844de	0.060612552
77	0x3d430d21	0.047619943
78	0x3d57efe2	0.052719004
79	0x3d5bae7d	0.053633202
80	0x3d40855a	0.047002174
81	0x3d354f89	0.044265304
82	0x3d67fb67	0.05663624
83	0x3d61fb3e	0.055171244
84	0x3d522578	0.051305264
85	0x3d5f7b68	0.05456105
86	0x3d5da4c2	0.054112203
87	0x3d463cf9	0.04839799
88	0x3d466272	0.04843373
89	0x3d46c1ab	0.04852454
90	0x3d62b2d5	0.05534633
91	0x3d43cddb	0.04780374
92	0x3d44b6ed	0.048026014
93	0x3d72febf	0.059324976
94	0x3d339bc1	0.04384971
95	0x3d4c5240	0.049883127
96	0x3d4bd658	0.04976496
97	0x3d5d34b9	0.05400536
98	0x3d4ee479	0.050510857
99	0x3d2f368c	0.04277663
100	0x3d60116f	0.054704126
101	0x3d30ecfd	0.04319476
102	0x3d5c55aa	0.053792633
103	0x3d731dba	0.05935452
104	0x3d58597c	0.052819714
105	0x3d4ec244	0.050478235
106	0x3d7c21ba	0.0615556
107	0x3d5e5700	0.05428219
108	0x3d4bb14d	0.049729634
109	0x3d43bece	0.047789387
110	0x3d6aa6b4	0.057287887
111	0x3d736af4	0.05942817
112	0x3d7bd3ac	0.061481163
113	0x3d54c9c2	0.051950224
114	0x3d41d18b	0.047318976
115	0x3d6c0785	0.05762436
116	0x3d659db4	0.0560586
117	0x3d83962c	0.064251274
118	0x3d6e96cd	0.058249284
119	0x3d49c112	0.04925639
120	0x3d41fd7c	0.047360882
121	0x3d42b954	0.047540024
122	0x3d4a826b	0.049440783
123	0x3d536521	0.051610116
124	0x3d433221	0.04765523
125	0x3d3b2dca	0.045697965
126	0x3d66f282	0.056383617
127	0x3d578b22	0.05262292

dense_reparameterization_Independentdense_reparameterization_Normal/sample/dense_reparameterization_Normal/sample/add;sequential_1/dense_reparameterization/StatefulPartitionedCall/dense_reparameterization_Independentdense_reparameterization_Normal/sample/dense_reparameterization_Normal/sample/add f4 [128, 10]
0	0x3d32667f	0.04355478
1	0x3d4c2e7a	0.04984901
2	0x3d1fbdd6	0.0389994
3	0x3d1be2d0	0.038058102
4	0x3d3c8baa	0.04603163
5	0x3d794c5d	0.06086384
6	0x3d2ef484	0.042713657
7	0x3d2a14a1	0.04152358
8	0x3d561390	0.05226475
9	0x3d290777	0.041266885
10	0x3d42e98c	0.04758601
11	0x3d425de7	0.047452834
12	0x3d4c3769	0.04985753
13	0x3d4e90e9	0.050431166
14	0x3d420d0c	0.047375724
15	0x3d561fb6	0.052276336
16	0x3d4f969a	0.050680734
17	0x3d402832	0.046913333
18	0x3d378425	0.044803757
19	0x3d55813a	0.052125193
20	0x3d237ca0	0.039913774
21	0x3d3cb02d	0.04606645
22	0x3d2073be	0.03917288
23	0x3d2de61a	0.04245577
24	0x3d343005	0.043991107
25	0x3d3fc0dc	0.046814784
26	0x3d235a33	0.039880943
27	0x3d4babbf	0.049724337
28	0x3d18fcf7	0.03735062
29	0x3d522eff	0.05131435
30	0x3d4730f7	0.04863068
31	0x3d6084eb	0.05481426
32	0x3d24bcae	0.040219
33	0x3d3b2a74	0.045694783
34	0x3d27df04	0.04098417
35	0x3d32473f	0.043524977
36	0x3d4658a3	0.048424374
37	0x3d398787	0.045295265
38	0x3d40c234	0.047060207
39	0x3d347091	0.044052664
40	0x3d479055	0.04872163
41	0x3d45c224	0.04828085
42	0x3d35af6e	0.044356756
43	0x3d51ee56	0.051252685
44	0x3d37d1a2	0.044877656
45	0x3d649527	0.055806305
46	0x3d54cf44	0.051955476
47	0x3d4583f8	0.04822156
48	0x3d60e9d3	0.054910492
49	0x3d4a3b44	0.049372926
50	0x3d579e0f	0.05264097
51	0x3d35d607	0.044393566
52	0x3d32d1a3	0.043656956
53	0x3d391f43	0.04519583
54	0x3d711f8d	0.05886798
55	0x3d502bb0	0.050822914
56	0x3d3ee75d	0.046607364
57	0x3d4d08d4	0.050057247
58	0x3d3e2540	0.046422243
59	0x3d48cbc6	0.04902246
60	0x3d2a9139	0.0416424
61	0x3d552087	0.052032974
62	0x3d4757f4	0.048667863
63	0x3d3b527f	0.04573297
64	0x3d4e4e9b	0.050367933
65	0x3d21b59f	0.039479848
66	0x3d731abc	0.059351668
67	0x3d3bbb3f	0.04583287
68	0x3d251bd5	0.040309746
69	0x3d44695b	0.047952037
70	0x3d7bd3c2	0.061481245
71	0x3d54a1e1	0.051912192
72	0x3d32c890	0.043648303
73	0x3d316e9c	0.043318376
74	0x3d3494c8	0.0440872
75	0x3d5ba20a	0.05362133
76	0x3d46b941	0.048516516
77	0x3d1c3d81	0.038144592
78	0x3d3ed834	0.046592906
79	0x3d3c8cf0	0.046032846
80	0x3d3c59da	0.045984127
81	0x3d5499f4	0.051904634
82	0x3d429e77	0.047514405
83	0x3d329909	0.043602977
84	0x3d5cbd52	0.053891487
85	0x3d3db207	0.04631236
86	0x3d419304	0.047259346
87	0x3d35bc94	0.044369295
88	0x3d3870ce	0.045029454
89	0x3d3ff128	0.046860844
90	0x3d2f1428	0.042743832
91	0x3d3af12b	0.045640152
92	0x3d2ddb48	0.04244545
93	0x3d421cc0	0.0473907
94	0x3d205026	0.039138936
95	0x3d433bc3	0.047664415
96	0x3d3865fc	0.045019135
97	0x3d25612e	0.04037588
98	0x3d3ed604	0.04659082
99	0x3d450894	0.048103884
100	0x3d45ee81	0.04832316
101	0x3d48481d	0.048896898
102	0x3d43ecdc	0.04783331
103	0x3d2d6715	0.042334635
104	0x3d458126	0.04821887
105	0x3d2a4b27	0.041575577
106	0x3d312021	0.04324353
107	0x3d639c78	0.055569142
108	0x3d2e8f77	0.042617287
109	0x3d3dc032	0.04632587
110	0x3d334da7	0.043775227
111	0x3d65cc62	0.056103118
112	0x3d41ce61	0.04731596
113	0x3d39a186	0.045320056
114	0x3d2ad17a	0.04170368
115	0x3d5a904a	0.05336026
116	0x3d2af728	0.041739613
117	0x3d50cc21	0.050975922
118	0x3d29ac02	0.041423805
119	0x3d2c9b70	0.042140424
120	0x3d3f0685	0.046637077
121	0x3d4682c2	0.048464544
122	0x3d3efcb7	0.046627726
123	0x3d468caf	0.04847401
124	0x3d44e530	0.048070133
125	0x3d53bee9	0.051695738
126	0x3d4d51b6	0.050126754
127	0x3d3b7708	0.045767814
128	0x3d3820f7	0.044953313
129	0x3d2eb634	0.04265423
130	0x3d417224	0.047227994
131	0x3d4d8640	0.05017686
132	0x3d43a74a	0.04776696
133	0x3d3a70f7	0.045517888
134	0x3d2c2e84	0.04203655
135	0x3d4e69c7	0.050393846
136	0x3d467170	0.048448026
137	0x3d4a7dfb	0.04943655
138	0x3d5ad8c4	0.05342938
139	0x3d258798	0.040412515
140	0x3d30c0a9	0.043152485
141	0x3d3d6324	0.046237126
142	0x3d2a6489	0.041599784
143	0x3d36e621	0.04465306
144	0x3d5c7f8d	0.05383258
145	0x3d335af1	0.0437879
146	0x3d477877	0.04869887
147	0x3d2dde66	0.042448424
148	0x3d331a69	0.04372636
149	0x3d231298	0.039812654
150	0x3d5f405d	0.05450474
151	0x3d401a65	0.04690017
152	0x3d30afc1	0.043136362
153	0x3d2e860a	0.0426083
154	0x3d590306	0.0529814
155	0x3d389054	0.045059517
156	0x3d69b0d5	0.057053406
157	0x3d2eb689	0.042654548
158	0x3d400872	0.046883054
159	0x3d4d2848	0.050087243
160	0x3d54c8be	0.051949255
161	0x3d2c5890	0.042076647
162	0x3d437549	0.047719274
163	0x3d4306c8	0.04761389
164	0x3d5faf7f	0.054610725
165	0x3d3c76ff	0.04601192
166	0x3d4aef96	0.049544893
167	0x3d3ce0a5	0.046112675
168	0x3d39c38b	0.0453525
169	0x3d5a1b84	0.053248897
170	0x3d4cd8b6	0.05001136
171	0x3d3084c1	0.043095354
172	0x3d4fd259	0.050737713
173	0x3d34e449	0.044163022
174	0x3d1c8877	0.03821608
175	0x3d3c5cdd	0.045987
176	0x3d443578	0.047902554
177	0x3d4d1e8f	0.05007797
178	0x3d4ae4a3	0.04953445
179	0x3d3a0682	0.045416363
180	0x3d3aad13	0.045575213
181	0x3d4e6364	0.050387755
182	0x3d4c9964	0.049950972
183	0x3d50e83a	0.05100272
184	0x3d55224f	0.052034672
185	0x3d4ae3fd	0.049533833
186	0x3d3750ae	0.044754677
187	0x3d52626f	0.051363405
188	0x3d66ca4c	0.05634527
189	0x3d3af9c4	0.04564835
190	0x3d3663c8	0.044528753
191	0x3d4836bc	0.048880324
192	0x3d4ce8e6	0.050026797
193	0x3d434c59	0.047680233
194	0x3d60645a	0.054783203
195	0x3d509ca3	0.05093063
196	0x3d325f2a	0.043547787
197	0x3d4b3069	0.049606714
198	0x3d3869ea	0.045022883
199	0x3d54409b	0.051819425
200	0x3d3e7117	0.04649457
201	0x3d47aea3	0.04875053
202	0x3d341148	0.043961793
203	0x3d5e0ff2	0.054214425
204	0x3d572a0b	0.05253033
205	0x3d3f202c	0.04666154
206	0x3d2f0622	0.042730458
207	0x3d38196e	0.044946127
208	0x3d386876	0.045021497
209	0x3d4e7fb0	0.05041474
210	0x3d6045b0	0.05475396
211	0x3d4f347c	0.050587162
212	0x3d5ee22e	0.05441492
213	0x3d590587	0.052983787
214	0x3d37d454	0.044880226
215	0x3d3b720e	0.045763068
216	0x3d4f30e8	0.05058375
217	0x3d45d277	0.048296418
218	0x3d421203	0.04738046
219	0x3d29301c	0.041305646
220	0x3d61ce6a	0.055128492
221	0x3d4f1051	0.05055267
222	0x3d5ebb9c	0.054378137
223	0x3d48cd5e	0.04902398
224	0x3d1ecbe6	0.03876867
225	0x3d25ce63	0.04048003
226	0x3d4c7f84	0.049926296
227	0x3d50bb9f	0.05096018
228	0x3d3a7afb	0.04552744
229	0x3d4487d6	0.047981106
230	0x3d564346	0.05231025
231	0x3d211a16	0.039331518
232	0x3d4400f2	0.047852464
233	0x3d344303	0.04400922
234	0x3d4078cf	0.046990212
235	0x3d427d50	0.04748279
236	0x3d4b2ff6	0.049606286
237	0x3d5f2a84	0.054483905
238	0x3d3d9d4b	0.046292584
239	0x3d482206	0.048860572
240	0x3d5a1a7b	0.05324791
241	0x3d554fe2	0.052078135
242	0x3d5a13be	0.053241484
243	0x3d5214c8	0.05128935
244	0x3d21cec5	0.03950383
245	0x3d59a191	0.053132597
246	0x3d3a3c1c	0.04546748
247	0x3d51cb29	0.05121914
248	0x3d53c184	0.051698223
249	0x3d6b834a	0.057498254
250	0x3d4c073c	0.049811587
251	0x3d6616df	0.056174155
252	0x3d50eab0	0.051005065
253	0x3d3a6f0b	0.045516055
254	0x3d3e6275	0.046480615
255	0x3d331db8	0.043729514

dense_reparameterization_Independentdense_reparameterization_Normal_1/sample/dense_reparameterization_Normal/sample/add;sequential_1/dense_reparameterization/StatefulPartitionedCall/dense_reparameterization_Independentdense_reparameterization_Normal_1/sample/dense_reparameterization_Normal/sample/add f4 [10]
0	0x3d3ad5fd	0.04561423
1	0x3d562e40	0.0522902
2	0x3d316ccc	0.043316647
3	0x3d5c2cce	0.053753667
4	0x3d71681b	0.058937173
5	0x3d3ea10c	0.046540305
6	0x3d6da90b	0.05802254
7	0x3d5d7f9c	0.054076776
8	0x3d4dcd80	0.05024481
9	0x3d44611b	0.04794417

Conv2D;sequential_1/conv2d_reparameterization/StatefulPartitionedCall/Conv2D f4 [16]
0	0x00000000	0.0
1	0x00000000	0.0
2	0x00000000	0.0
3	0x00000000	0.0
4	0x00000000	0.0
5	0x00000000	0.0
6	0x00000000	0.0
7	0x00000000	0.0
8	0x00000000	0.0
9	0x00000000	0.0
10	0x00000000	0.0
11	0x00000000	0.0
12	0x00000000	0.0
13	0x00000000	0.0
14	0x00000000	0.0
15	0x00000000	0.0

Conv2D;sequential_1/conv2d_reparameterization_1/StatefulPartitionedCall/Conv2D f4 [32]
0	0x00000000	0.0
1	0x00000000	0.0
2	0x00000000	0.0
3	0x00000000	0.0
4	0x00000000	0.0
5	0x00000000	0.0
6	0x00000000	0.0
7	0x00000000	0.0
8	0x00000000	0.0
9	0x00000000	0.0
10	0x00000000	0.0
11	0x00000000	0.0
12	0x00000000	0.0
13	0x00000000	0.0
14	0x00000000	0.0
15	0x00000000	0.0
16	0x00000000	0.0
17	0x00000000	0.0
18	0x00000000	0.0
19	0x00000000	0.0
20	0x00000000	0.0
21	0x00000000	0.0
22	0x00000000	0.0
23	0x00000000	0.0
24	0x00000000	0.0
25	0x00000000	0.0
26	0x00000000	0.0
27	0x00000000	0.0
28	0x00000000	0.0
29	0x00000000	0.0
30	0x00000000	0.0
31	0x00000000	0.0

Conv2D;sequential_1/conv2d_reparameterization_2/StatefulPartitionedCall/Conv2D f4 [64]
0	0x00000000	0.0
1	0x00000000	0.0
2	0x00000000	0.0
3	0x00000000	0.0
4	0x00000000	0.0
5	0x00000000	0.0
6	0x00000000	0.0
7	0x00000000	0.0
8	0x00000000	0.0
9	0x00000000	0.0
10	0x00000000	0.0
11	0x00000000	0.0
12	0x00000000	0.0
13	0x00000000	0.0
14	0x00000000	0.0
15	0x00000000	0.0
16	0x00000000	0.0
17	0x00000000	0.0
18	0x00000000	0.0
19	0x00000000	0.0
20	0x00000000	0.0
21	0x00000000	0.0
22	0x00000000	0.0
23	0x00000000	0.0
24	0x00000000	0.0
25	0x00000000	0.0
26	0x00000000	0.0
27	0x00000000	0.0
28	0x00000000	0.0
29	0x00000000	0.0
30	0x00000000	0.0
31	0x00000000	0.0
32	0x00000000	0.0
33	0x00000000	0.0
34	0x00000000	0.0
35	0x00000000	0.0
36	0x00000000	0.0
37	0x00000000	0.0
38	0x00000000	0.0
39	0x00000000	0.0
40	0x00000000	0.0
41	0x00000000	0.0
42	0x00000000	0.0
43	0x00000000	0.0
44	0x00000000	0.0
45	0x00000000	0.0
46	0x00000000	0.0
47	0x00000000	0.0
48	0x00000000	0.0
49	0x00000000	0.0
50	0x00000000	0.0
51	0x00000000	0.0
52	0x00000000	0.0
53	0x00000000	0.0
54	0x00000000	0.0
55	0x00000000	0.0
56	0x00000000	0.0
57	0x00000000	0.0
58	0x00000000	0.0
59	0x00000000	0.0
60	0x00000000	0.0
61	0x00000000	0.0
62	0x00000000	0.0
63	0x00000000	0.0

Conv2D;sequential_1/conv2d_reparameterization_3/StatefulPartitionedCall/Conv2D f4 [128]
0	0x00000000	0.0
1	0x00000000	0.0
2	0x00000000	0.0
3	0x00000000	0.0
4	0x00000000	0.0
5	0x00000000	0.0
6	0x00000000	0.0
7	0x00000000	0.0
8	0x00000000	0.0
9	0x00000000	0.0
10	0x00000000	0.0
11	0x00000000	0.0
12	0x00000000	0.0
13	0x00000000	0.0
14	0x00000000	0.0
15	0x00000000	0.0
16	0x00000000	0.0
17	0x00000000	0.0
18	0x00000000	0.0
19	0x00000000	0.0
20	0x00000000	0.0
21	0x00000000	0.0
22	0x00000000	0.0
23	0x00000000	0.0
24	0x00000000	0.0
25	0x00000000	0.0
26	0x00000000	0.0
27	0x00000000	0.0
28	0x00000000	0.0
29	0x00000000	0.0
30	0x00000000	0.0
31	0x00000000	0.0
32	0x00000000	0.0
33	0x00000000	0.0
34	0x00000000	0.0
35	0x00000000	0.0
36	0x00000000	0.0
37	0x00000000	0.0
38	0x00000000	0.0
39	0x00000000	0.0
40	0x00000000	0.0
41	0x00000000	0.0
42	0x00000000	0.0
43	0x00000000	0.0
44	0x00000000	0.0
45	0x00000000	0.0
46	0x00000000	0.0
47	0x00000000	0.0
48	0x00000000	0.0
49	0x00000000	0.0
50	0x00000000	0.0
51	0x00000000	0.0
52	0x00000000	0.0
53	0x00000000	0.0
54	0x00000000	0.0
55	0x00000000	0.0
56	0x00000000	0.0
57	0x00000000	0.0
58	0x00000000	0.0
59	0x00000000	0.0
60	0x00000000	0.0
61	0x00000000	0.0
62	0x00000000	0.0
63	0x00000000	0.0
64	0x00000000	0.0
65	0x00000000	0.0
66	0x00000000	0.0
67	0x00000000	0.0
68	0x00000000	0.0
69	0x00000000	0.0
70	0x00000000	0.0
71	0x00000000	0.0
72	0x00000000	0.0
73	0x00000000	0.0
74	0x00000000	0.0
75	0x00000000	0.0
76	0x00000000	0.0
77	0x00000000	0.0
78	0x00000000	0.0
79	0x00000000	0.0
80	0x00000000	0.0
81	0x00000000	0.0
82	0x00000000	0.0
83	0x00000000	0.0
84	0x00000000	0.0
85	0x00000000	0.0
86	0x00000000	0.0
87	0x00000000	0.0
88	0x00000000	0.0
89	0x00000000	0.0
90	0x00000000	0.0
91	0x00000000	0.0
92	0x00000000	0.0
93	0x00000000	0.0
94	0x00000000	0.0
95	0x00000000	0.0
96	0x00000000	0.0
97	0x00000000	0.0
98	0x00000000	0.0
99	0x00000000	0.0
100	0x00000000	0.0
101	0x00000000	0.0
102	0x00000000	0.0
103	0x00000000	0.0
104	0x00000000	0.0
105	0x00000000	0.0
106	0x00000000	0.0
107	0x00000000	0.0
108	0x00000000	0.0
109	0x00000000	0.0
110	0x00000000	0.0
111	0x00000000	0.0
112	0x00000000	0.0
113	0x00000000	0.0
114	0x00000000	0.0
115	0x00000000	0.0
116	0x00000000	0.0
117	0x00000000	0.0
118	0x00000000	0.0
119	0x00000000	0.0
120	0x00000000	0.0
121	0x00000000	0.0
122	0x00000000	0.0
123	0x00000000	0.0
124	0x00000000	0.0
125	0x00000000	0.0
126	0x00000000	0.0
127	0x00000000	0.0

conv2d_reparameterization_Independentconv2d_reparameterization_Normal/sample/conv2d_reparameterization_Normal/sample/mul;sequential_1/conv2d_reparameterization/StatefulPartitionedCall/conv2d_reparameterization_Independentconv2d_reparameterization_Normal/sample/conv2d_reparameterization_Normal/sample/mul f4 [1, 3, 3, 1, 16]
0	0x3d358c0c	0.044323012
1	0x3d4ea2e5	0.050448317
2	0x3d4c2cdf	0.04984748
3	0x3d3a8a39	0.045541976
4	0x3d40c755	0.047065098
5	0x3d4f1c06	0.050563835
6	0x3d428141	0.047486547
7	0x3d204d67	0.039136317
8	0x3d384f7b	0.044997673
9	0x3d462016	0.048370443
10	0x3d2ea3a8	0.042636544
11	0x3d52c4fa	0.051457383
12	0x3d393e7e	0.045225613
13	0x3d408ddd	0.04701029
14	0x3d0dc31e	0.034609906
15	0x3d4139fc	0.04717444
16	0x3d216267	0.039400484
17	0x3d6bca20	0.05756581
18	0x3d574de5	0.05256452
19	0x3d4026ca	0.046911992
20	0x3d545f6c	0.051848814
21	0x3d3b25a0	0.04569018
22	0x3d3f7a50	0.046747506
23	0x3d3e8f27	0.04652324
24	0x3d2123db	0.039340835
25	0x3d4607f5	0.048347432
26	0x3d4aa0d4	0.049469784
27	0x3d4062db	0.046969276
28	0x3d32e825	0.04367842
29	0x3d4aedd5	0.04954322
30	0x3d2778cd	0.04088669
31	0x3d361885	0.044456977
32	0x3d36a959	0.044595096
33	0x3d457f60	0.048217177
34	0x3d48bc19	0.04900751
35	0x3d3fa955	0.046792347
36	0x3d42679a	0.047462083
37	0x3d286988	0.041116267
38	0x3d356b6d	0.044291902
39	0x3d538b75	0.05164667
40	0x3d318b1e	0.043345563
41	0x3d383f9f	0.04498255
42	0x3d2dd13f	0.04243588
43	0x3d54548b	0.05183844
44	0x3d539c02	0.051662453
45	0x3d38bd15	0.045102198
46	0x3d3844c3	0.04498745
47	0x3d530be0	0.051524997
48	0x3d484f68	0.048903853
49	0x3d37ccdf	0.044873115
50	0x3d3b9cc8	0.045803815
51	0x3d69f942	0.057122476
52	0x3d2c1ccc	0.04201965
53	0x3d5865d4	0.052831486
54	0x3d46d6f7	0.04854485
55	0x3d450feb	0.048110884
56	0x3d0f0998	0.03492126
57	0x3d2df905	0.04247381
58	0x3d30cbdc	0.043163165
59	0x3d2b8460	0.04187429
60	0x3d35cf92	0.044387408
61	0x3d480f35	0.048842628
62	0x3d440918	0.047860235
63	0x3d1cfd4f	0.03832751
64	0x3d36e7b9	0.04465458
65	0x3d527fc3	0.051391374
66	0x3d5a95bf	0.053365465
67	0x3d49a31d	0.049227823
68	0x3d40f47c	0.04710816
69	0x3d20a13c	0.039216265
70	0x3d37d18e	0.04487758
71	0x3d343e49	0.044004712
72	0x3d3f39fb	0.046686154
73	0x3d5e9c05	0.05434801
74	0x3d3f6104	0.04672338
75	0x3d5c20b0	0.05374211
76	0x3d4e9b83	0.050441276
77	0x3d2af6e6	0.041739367
78	0x3d468603	0.048467647
79	0x3d5a9b37	0.05337068
80	0x3d4a060a	0.049322166
81	0x3d3c20f4	0.045929864
82	0x3d31f869	0.043449793
83	0x3d3840fa	0.04498384
84	0x3d60f34c	0.054919526
85	0x3d5cd859	0.053917263
86	0x3d29a1b4	0.041413978
87	0x3d73035e	0.059329383
88	0x3d377ae0	0.044794917
89	0x3d41938c	0.047259852
90	0x3d4cf28e	0.050036006
91	0x3d3778a1	0.044792775
92	0x3d44b7b9	0.048026774
93	0x3d4911bb	0.049089175
94	0x3d434fc1	0.04768348
95	0x3d1d5b94	0.038417414
96	0x3d3ab8e2	0.045586474
97	0x3d4f4ad3	0.050608467
98	0x3d3ca244	0.046053186
99	0x3d3be54f	0.045872983
100	0x3d1d4409	0.03839496
101	0x3d3333bc	0.04375051
102	0x3d2af0f1	0.041733686
103	0x3d69159e	0.05690538
104	0x3d2d710b	0.042344134
105	0x3d497526	0.049183987
106	0x3d69f874	0.05712171
107	0x3d678653	0.056524586
108	0x3d52aab3	0.051432323
109	0x3d35733f	0.04429936
110	0x3d54091d	0.051766504
111	0x3d3f01d0	0.046632588
112	0x3d3431ea	0.043992914
113	0x3d43ccef	0.04780286
114	0x3d58e3a7	0.05295148
115	0x3d51131f	0.051043626
116	0x3d4cbc67	0.049984362
117	0x3d4e6e9d	0.050398458
118	0x3d3f9d78	0.046781033
119	0x3d517c95	0.0511442
120	0x3d326a4d	0.043558408
121	0x3d3ade5d	0.04562222
122	0x3d59bdfc	0.0531597
123	0x3d4fd31f	0.05073845
124	0x3d3ab6df	0.045584556
125	0x3d34deb0	0.044157684
126	0x3d440ec5	0.047865648
127	0x3d5b3f61	0.05352724
128	0x3d345459	0.044025753
129	0x3d58caf9	0.052927945
130	0x3d44e411	0.048069064
131	0x3d2f7201	0.042833332
132	0x3d2599ce	0.040429883
133	0x3d44ca96	0.048044764
134	0x3d470430	0.048587978
135	0x3d2dfb91	0.04247624
136	0x3d3d7c6d	0.04626124
137	0x3d466a1d	0.04844104
138	0x3d554c6e	0.052074842
139	0x3d582f19	0.05277929
140	0x3d5d2bc8	0.05399683
141	0x3d426215	0.04745682
142	0x3d3ad703	0.045615207
143	0x3d49c68d	0.04926162

conv2d_reparameterization_Independentconv2d_reparameterization_Normal/sample/conv2d_reparameterization_Normal/sample/add_1;sequential_1/conv2d_reparameterization/StatefulPartitionedCall/conv2d_reparameterization_Independentconv2d_reparameterization_Normal/sample/conv2d_reparameterization_Normal/sample/add_1 f4 [1, 3, 3, 1, 16]
0	0xbdc9114b	-0.098177515
1	0xbe70ea2d	-0.23526831
2	0xbe44f686	-0.19234666
3	0x3da874ba	0.08225389
4	0x3cc24e6d	0.023719037
5	0x3d0dea1a	0.034647085
6	0xbe678061	-0.22607566
7	0x3e0f8b30	0.1401794
8	0x3dd64e21	0.10464121
9	0x3d733670	0.059378088
10	0xbdc33b87	-0.09532838
11	0xbcac97c7	-0.021068467
12	0x3d871f33	0.06597748
13	0xbe0584d5	-0.13038953
14	0x3ddbab61	0.10726047
15	0x3db8e9aa	0.09028943
16	0xbd3b1cbc	-0.0456817
17	0xbe141784	-0.14462095
18	0xbeab2d47	-0.3343298
19	0x3ec28ed2	0.37999588
20	0xbd5243a1	-0.051334027
21	0x3ddab793	0.10679545
22	0xbe2df5e7	-0.16988336
23	0xbe12f930	-0.1435287
24	0x3e66be68	0.22533572
25	0xbe3118e7	-0.17294656
26	0x3db2b169	0.087252446
27	0xbe623839	-0.2209176
28	0x3ea63967	0.3246567
29	0xbeb07c72	-0.34469944
30	0x3e3f9dfa	0.18712607
31	0xbd8341ae	-0.06409012
32	0x3d65566b	0.055990618
33	0xbe81f419	-0.25381544
34	0xbe6d0793	-0.2314742
35	0x3d26c914	0.040719107
36	0x3d9c3f3c	0.076292485
37	0xbe1facc0	-0.15593243
38	0x3e4091cf	0.18805622
39	0xbe7776be	-0.2416639
40	0x3d99fd4e	0.07519017
41	0xbebb875a	-0.36626703
42	0xbe217fac	-0.15771359
43	0xbeb74eba	-0.3580225
44	0x3dc05ac4	0.09392312
45	0xbe370db3	-0.1787632
46	0x3e8abe4f	0.2709832
47	0xbc84875d	-0.016177827
48	0x3e7c6e31	0.2465141
49	0xbe7a30ad	-0.24432631
50	0xbec8faa6	-0.3925373
51	0xbe248e51	-0.16069914
52	0x3e00fe8b	0.125971
53	0x3d926741	0.071486
54	0xbe7eeeae	-0.24895737
55	0x3e2c5acc	0.16831511
56	0x3e73f986	0.23825654
57	0x3e1b9ba1	0.15196086
58	0xbce28c34	-0.027654745
59	0x3c6f5b27	0.014609135
60	0xbe3c7c38	-0.1840676
61	0x3e60072e	0.21877739
62	0xbe8573a6	-0.26064795
63	0xbb167870	-0.002295997
64	0x3db59791	0.088667996
65	0xbe2212fc	-0.15827554
66	0xbe4d2f81	-0.20037653
67	0xbd78a503	-0.060704242
68	0x3d9bc662	0.07606198
69	0x3e743af0	0.23850608
70	0xbe40bb50	-0.18821454
71	0xbd5b2a1e	-0.053506963
72	0x3e15a68f	0.14614318
73	0xbdb93a43	-0.09044316
74	0x3e1c1d65	0.15245588
75	0xbe21483f	-0.15750216
76	0x3d617b5a	0.055049278
77	0x3d087b20	0.033320546
78	0xbea2917d	-0.31751624
79	0x3deecda2	0.11660315
80	0x3dfbda62	0.122975126
81	0xbe8aec96	-0.27133626
82	0x3c91261e	0.017718371
83	0x3da9e431	0.08295477
84	0x3cc2665a	0.023730446
85	0x3e40c067	0.18823396
86	0x3e9178ea	0.28412563
87	0xbe2ad69d	-0.16683431
88	0xbca56055	-0.020187536
89	0xbe7aa178	-0.24475658
90	0x3dbf5adf	0.09343504
91	0xbe86e27d	-0.26344672
92	0x3c1c8b07	0.009554631
93	0x3e5e3243	0.21698861
94	0xbe752042	-0.23938087
95	0x3e86ed64	0.2635299
96	0x3d06780b	0.032829326
97	0xbdc819d7	-0.097705536
98	0xbd9021a3	-0.07037666
99	0xbe19d74d	-0.15023537
100	0x3db82918	0.08992213
101	0xbe4ea7ee	-0.20181248
102	0xbe0d26f4	-0.1378439
103	0x3e918c7f	0.28427503
104	0xbc1acab6	-0.009447744
105	0x3e65a193	0.22424917
106	0x3b813a9f	0.0039437558
107	0x3d4b52cd	0.04963951
108	0xbc59ef81	-0.013301731
109	0x3e6cae21	0.231133
110	0xbec6da2c	-0.38838327
111	0xbe6329b8	-0.22183883
112	0xbcb41cf9	-0.021986471
113	0xbdb3db12	-0.08782019
114	0xbce835bc	-0.028345935
115	0x3b166172	0.0022946266
116	0x3da861cc	0.08221778
117	0xbc6f7dd4	-0.014617402
118	0x3e322b80	0.17399406
119	0x3ea09b57	0.31368515
120	0xbce1c3c5	-0.02755917
121	0x3d0d91ad	0.034562755
122	0x3e854d99	0.26035765
123	0xbdbfdaf7	-0.09367936
124	0xbd400e11	-0.046888415
125	0x3e534c3f	0.20634554
126	0xbea0ff10	-0.31444597
127	0x3dc7df7d	0.09759424
128	0x3bb3878e	0.005478806
129	0xbe8a5543	-0.27018175
130	0x3d4613b4	0.048358634
131	0xbbd239a8	-0.0064155646
132	0x3d25c433	0.040470313
133	0x3e4bbb2b	0.19895618
134	0x3e2c6200	0.16834259
135	0x3d4b64ef	0.049656805
136	0xbe764c61	-0.24052574
137	0x3bb29079	0.0054493514
138	0x3e13bab9	0.14426698
139	0xbdefb194	-0.11703792
140	0x3e2b16e1	0.16707946
141	0x3e064446	0.13111982
142	0xbebd4312	-0.36965233
143	0x3e15d6ff	0.14632796

conv2d_reparameterization_1_Independentconv2d_reparameterization_1_Normal/sample/conv2d_reparameterization_1_Normal/sample/mul;sequential_1/conv2d_reparameterization_1/StatefulPartitionedCall/conv2d_reparameterization_1_Independentconv2d_reparameterization_1_Normal/sample/conv2d_reparameterization_1_Normal/sample/mul f4 [1, 3, 3, 16, 32]
0	0x3d80e8c2	0.06294395
1	0x3d63b92d	0.05559652
2	0x3d621a5f	0.05520093
3	0x3d508ed9	0.05091748
4	0x3d3d584f	0.046226796
5	0x3d505b6b	0.050868433
6	0x3d42064e	0.047369294
7	0x3d6d69f0	0.057962358
8	0x3d5603bd	0.05224966
9	0x3d51b248	0.051195413
10	0x3d5ab847	0.053398397
11	0x3d584d2b	0.052807968
12	0x3d4b5a91	0.049646918
13	0x3d5568a6	0.052101754
14	0x3d3de03f	0.046356436
15	0x3d35bacd	0.0443676
16	0x3d62bcbb	0.05535577
17	0x3d3bcfcb	0.045852464
18	0x3d79424c	0.06085424
19	0x3d5e155d	0.054219592
20	0x3d730149	0.059327397
21	0x3d6148ed	0.055001188
22	0x3d4ab2cc	0.04948692
23	0x3d499451	0.04921371
24	0x3d3c6762	0.04599703
25	0x3d5ee47f	0.05441713
26	0x3d655eab	0.055998486
27	0x3d8110a5	0.06302003
28	0x3d5c6dcd	0.05381565
29	0x3d67c7e6	0.056587122
30	0x3d3c7ec2	0.046019323
31	0x3d4ec402	0.050479896
32	0x3d5ebd83	0.05437995
33	0x3d6b2c20	0.057415128
34	0x3d5f5008	0.054519683
35	0x3d560352	0.05224926
36	0x3d624693	0.055243086
37	0x3d716b29	0.058940087
38	0x3d431180	0.04762411
39	0x3d24dbe5	0.04024877
40	0x3d466bf9	0.048442814
41	0x3d5f7f31	0.05456466
42	0x3d5b8b72	0.053599782
43	0x3d57fd79	0.052731965
44	0x3d432fa0	0.04765284
45	0x3d4cce58	0.050001472
46	0x3d63e9d4	0.055642918
47	0x3d506836	0.050880633
48	0x3d7ef0c0	0.062241316
49	0x3d5b6b23	0.05356897
50	0x3d5e7f0d	0.054320384
51	0x3d3ee73a	0.046607234
52	0x3d6a8b74	0.0572619
53	0x3d5ec831	0.054390136
54	0x3d5bc3b5	0.053653438
55	0x3d510010	0.05102545
56	0x3d4738f8	0.048638314
57	0x3d540844	0.051765695
58	0x3d55701d	0.052108873
59	0x3d8ab0dc	0.067720145
60	0x3d5d1f12	0.05398471
61	0x3d70572d	0.058676887
62	0x3d6b49b8	0.05744335
63	0x3d8bb16a	0.068209484
64	0x3d6940b1	0.05694646
65	0x3d740201	0.059572224
66	0x3d577adf	0.052607413
67	0x3d5a2b18	0.053263754
68	0x3d65b8f3	0.056084584
69	0x3d55f226	0.052232884
70	0x3d46b719	0.04851446
71	0x3d465036	0.04841634
72	0x3d7363f5	0.0594215
73	0x3d78b682	0.060720928
74	0x3d7a644c	0.061130807
75	0x3d57c444	0.052677408
76	0x3d8000bb	0.06250139
77	0x3d7bf73c	0.061515078
78	0x3d65fd5b	0.05614982
79	0x3d420fa5	0.0473782
80	0x3d511907	0.05104926
81	0x3d42bde1	0.047544364
82	0x3d509e74	0.050932363
83	0x3d7664fc	0.0601549
84	0x3d6f27f8	0.058387727
85	0x3d6ce2e3	0.057833564
86	0x3d430c51	0.047619168
87	0x3d739ad8	0.059473842
88	0x3d4e4077	0.050354447
89	0x3d449df9	0.048002217
90	0x3d6ab331	0.057299796
91	0x3d6b284d	0.05741148
92	0x3d536e35	0.051618773
93	0x3d514811	0.05109412
94	0x3d5fdc8e	0.054653697
95	0x3d64c71f	0.05585396
96	0x3d3cb8d2	0.046074696
97	0x3d54c062	0.051941283
98	0x3d5a3e6d	0.05328219
99	0x3d49189e	0.049095742
100	0x3d78df45	0.0607598
101	0x3d69eb44	0.057109132
102	0x3d4b4a38	0.049631327
103	0x3d5bfe92	0.053709574
104	0x3d2e13f3	0.042499494
105	0x3d5942b9	0.053042147
106	0x3d369647	0.04457691
107	0x3d5a7739	0.053336356
108	0x3d43042b	0.047611397
109	0x3d4e3961	0.05034769
110	0x3d7bb1ce	0.061448865
111	0x3d61e408	0.05514911
112	0x3d3c5af7	0.04598519
113	0x3d491b58	0.049098343
114	0x3d4d7438	0.050159663
115	0x3d4e3932	0.050347514
116	0x3d60a36d	0.054843355
117	0x3d3fa41b	0.046787363
118	0x3d66f10e	0.05638223
119	0x3d411d58	0.047147125
120	0x3d495696	0.04915484
121	0x3d4482b4	0.04797621
122	0x3d5e438d	0.05426364
123	0x3d5944e4	0.053044215
124	0x3d66b932	0.05632896
125	0x3d541286	0.051775478
126	0x3d741ea3	0.05959953
127	0x3d7d601a	0.061859228
128	0x3d84fc02	0.06493379
129	0x3d68d8c1	0.056847338
130	0x3d3ce260	0.046114326
131	0x3d54cdd4	0.051954105
132	0x3d5ba47a	0.053623654
133	0x3d576212	0.05258376
134	0x3d5b898a	0.053597964
135	0x3d4dd640	0.050253153
136	0x3d4e66b8	0.05039093
137	0x3d7b76a8	0.061392456
138	0x3d603a66	0.054743193
139	0x3d566262	0.05233992
140	0x3d4f3de1	0.05059612
141	0x3d61dc14	0.055141523
142	0x3d5e6802	0.05429841
143	0x3d518180	0.05114889
144	0x3d683120	0.056687474
145	0x3d62cc16	0.055370413
146	0x3d6f2771	0.058387224
147	0x3d750e6b	0.059828203
148	0x3d606ba7	0.054790165
149	0x3d64faab	0.055903118
150	0x3d43324a	0.04765538
151	0x3d6462c7	0.055758264
152	0x3d5a402c	0.053283855
153	0x3d3d933b	0.046282988
154	0x3d63c325	0.055606026
155	0x3d7bf562	0.061513312
156	0x3d6fd115	0.058549006
157	0x3d5906eb	0.052985113
158	0x3d5c2411	0.053745333
159	0x3d6fb529	0.058522377
160	0x3d5a432b	0.053286713
161	0x3d728ad4	0.059214428
162	0x3d6f016e	0.058350973
163	0x3d5c0c78	0.05372283
164	0x3d622062	0.055206664
165	0x3d559813	0.052146982
166	0x3d4ca568	0.04996243
167	0x3d4ac3d5	0.049503166
168	0x3d49e906	0.049294494
169	0x3d6de72e	0.0580818
170	0x3d39688c	0.04526572
171	0x3d79d214	0.06099136
172	0x3d569ce2	0.05239571
173	0x3d66108e	0.05616813
174	0x3d5d782d	0.054069687
175	0x3d5ac75e	0.053412788
176	0x3d515681	0.051107887
177	0x3d55f1f6	0.052232705
178	0x3d64d37d	0.055865753
179	0x3d600e5f	0.054701205
180	0x3d54bbbc	0.05193685
181	0x3d63540e	0.055500083
182	0x3d5817f8	0.052757233
183	0x3d47a950	0.048745453
184	0x3d5522a6	0.052034996
185	0x3d572ee2	0.052534945
186	0x3d865da7	0.065608315
187	0x3d647bcc	0.055782124
188	0x3d63a46e	0.055576734
189	0x3d4cf761	0.050040606
190	0x3d596c18	0.0530816
191	0x3d8121a8	0.063052475
192	0x3d6c469d	0.05768453
193	0x3d6bb5d1	0.05754644
194	0x3d5f6e74	0.054548696
195	0x3d61a745	0.05509116
196	0x3d4e669f	0.050390836
197	0x3d494b1c	0.049143896
198	0x3d569126	0.052384518
199	0x3d5688ab	0.05237643
200	0x3d5d7da2	0.05407489
201	0x3d61784f	0.055046376
202	0x3d5cc948	0.053902894
203	0x3d7a2e32	0.06107921
204	0x3d3ed2a6	0.04658761
205	0x3d7f1746	0.062278055
206	0x3d7889a0	0.060678124
207	0x3d645466	0.05574455
208	0x3d2eb18f	0.0426498
209	0x3d514e11	0.05109984
210	0x3d4a900f	0.04945379
211	0x3d593cca	0.05303649
212	0x3d80037f	0.06250667
213	0x3d692075	0.05691572
214	0x3d527080	0.05137682
215	0x3d688368	0.056765944
216	0x3d4cefea	0.050033487
217	0x3d451d82	0.048123844
218	0x3d7b48bf	0.061348673
219	0x3d806b0d	0.06270418
220	0x3d51cfb2	0.051223464
221	0x3d7822b6	0.060579978
222	0x3d614887	0.055000808
223	0x3d656723	0.056006562
224	0x3d7f922f	0.06239527
225	0x3d6d0eca	0.057875432
226	0x3d637c57	0.0555385
227	0x3d47e78d	0.04880481
228	0x3d5733fa	0.052539803
229	0x3d2d5fd5	0.04232772
230	0x3d62cdbc	0.055371985
231	0x3d45be47	0.048277166
232	0x3d3bee1e	0.045881383
233	0x3d53b62c	0.051687405
234	0x3d557794	0.05211599
235	0x3d61ea3f	0.055155035
236	0x3d740feb	0.059585493
237	0x3d3ad34a	0.045611657
238	0x3d69d0ec	0.05708401
239	0x3d3764ae	0.04477375
240	0x3d48a2f6	0.048983537
241	0x3d5292b8	0.051409453
242	0x3d59e887	0.05320027
243	0x3d70b876	0.058769666
244	0x3d6ef1d7	0.058336105
245	0x3d692c84	0.05692722
246	0x3d4ff1bc	0.050767645
247	0x3d551ef2	0.052031465
248	0x3d81bfd4	0.063354164
249	0x3d3a5f34	0.04550095
250	0x3d5353ca	0.05159358
251	0x3d5f42c8	0.054507047
252	0x3d561658	0.052267402
253	0x3d5d014f	0.053956326
254	0x3d4f47e3	0.050605666
255	0x3d8807f8	0.06642145
