bayesian_cnn.tflite (tflite, 836092 bytes, 24 tensors)

sequential_1/dense_reparameterization/123640 f4 [10]
0	0x3becf16d	0.0072309286
1	0x3d4ad987	0.049523856
2	0x3d931bf8	0.07183069
3	0x3e0739d5	0.13205655
4	0xbcab907e	-0.020942923
5	0xbc9b462c	-0.018954359
6	0xbe7b9005	-0.24566658
7	0x3d720a44	0.05909182
8	0x3e0c561c	0.13704723
9	0x3e02b6fb	0.12765114

sequential_1/dense_reparameterization/123636 f4 [128, 10]
0	0x3ea417fb	0.32049546
1	0xbd85d848	-0.06535393
2	0xbe0ba89d	-0.1363854
3	0x3d990495	0.07471577
4	0xbc8a96f7	-0.016917689
5	0xbd95ef3d	-0.07321022
6	0x3e9f779c	0.31145942
7	0xbde8fdfd	-0.113765694
8	0x3d96f6e8	0.073713124
9	0xbdd07397	-0.10178297
10	0x3ddef71d	0.10886977
11	0x3d6cc79b	0.057807546
12	0x3d7a101f	0.06105053
13	0x3ce43dcb	0.027861496
14	0x3d0127e3	0.03153218
15	0xbd0d406c	-0.034485266
16	0x3e3b67d9	0.18301333
17	0x3dc41873	0.09574976
18	0xbe6c255e	-0.2306113
19	0xbe4feda8	-0.20305502
20	0x3e3709f3	0.17874889
21	0xbe890653	-0.26762637
22	0xbd848d7e	-0.064723
23	0xbd658236	-0.056032382
24	0xbb125c3d	-0.002233281
25	0x3c7c2ec2	0.015392007
26	0xbe554e66	-0.20830688
27	0x3e0c2bbe	0.13688561
28	0x3c629aa2	0.013830813
29	0x3dd63a51	0.10460342
30	0xbe69bc9c	-0.22825855
31	0xbe5c8b20	-0.21537447
32	0xbe13e6e8	-0.14443552
33	0x3e3d4128	0.18481886
34	0x3e1c61d5	0.15271695
35	0xbe48f0be	-0.19623086
36	0xbead1081	-0.33801654
37	0xbb6bdf56	-0.0035991273
38	0x3d9003ca	0.07031973
39	0x3d7f9826	0.06240096
40	0xbe000a6d	-0.12503977
41	0x3dcf3862	0.10118176
42	0xbe0c7d93	-0.13719778
43	0xbe263d90	-0.16234422
44	0xbb38e3ab	-0.0028211873
45	0xbe66d6f3	-0.22542934
46	0xbdea60af	-0.11444222
47	0x3e493182	0.19647792
48	0xbe8d3c7e	-0.27585214
49	0x3e2ab659	0.16671123
50	0xbc2614c1	-0.010136784
51	0x3ca2a69f	0.019854842
52	0xbd327e6f	-0.043577608
53	0x3d889e6c	0.066708416
54	0x3e670a34	0.22562486
55	0xbe022e04	-0.12712866
56	0xbe010330	-0.12598872
57	0x3d840fc1	0.06448317
58	0xbe04be21	-0.12963153
59	0xbe05e1b1	-0.13074376
60	0xbe5368c8	-0.2064544
61	0x3e65b7a9	0.22433342
62	0xbd8ef0f2	-0.069795504
63	0x3db6d079	0.08926482
64	0xbe8a0834	-0.26959383
65	0xbd954df2	-0.072902575
66	0x3c537cb7	0.012908152
67	0x3c60aa87	0.013712532
68	0x3e51c992	0.20487049
69	0xbdc70590	-0.09717858
70	0xbbc774f3	-0.0060869395
71	0x3e8614be	0.261877
72	0x3dd83d44	0.105585605
73	0xbebc8d62	-0.36826617
74	0xbdbc7547	-0.092020564
75	0xbdf092d1	-0.11746753
76	0x3dae2545	0.08503202
77	0xbeb042da	-0.34426004
78	0xbe17489a	-0.14773789
79	0x3d6b39dc	0.057428226
80	0x3e0a5c44	0.13511759
81	0x3d0396b0	0.03212613
82	0xbe0acef6	-0.13555512
83	0x3d6b755f	0.05748498
84	0xbe1a7cf1	-0.15086724
85	0x3e054737	0.13015448
86	0xbe1a0a71	-0.15043046
87	0xbe03618d	-0.12830181
88	0x3d89ea03	0.06734087
89	0xbe81c3d0	-0.25344706
90	0x3e14cd1c	0.14531368
91	0xbd31c56a	-0.04340116
92	0xbd4a79c1	-0.04943252
93	0xbc83cdfa	-0.016089428
94	0x3d11599f	0.03548586
95	0xbe3d2b73	-0.18473606
96	0x3d72b898	0.059258074
97	0xbd5ac8a5	-0.053414006
98	0xbe474b6b	-0.19462363
99	0xbe13f739	-0.14449777
100	0xbd39c35e	-0.045352332
101	0x3eeee122	0.46656138
102	0xbe8eb937	-0.27875683
103	0xbe116eb2	-0.14202383
104	0xbe5b2748	-0.21401703
105	0x3bab9c28	0.005237121
106	0x3de5026f	0.11182105
107	0x3e0a8443	0.13527016
108	0xbcdf4e1b	-0.027258923
109	0x3e20d09e	0.15704581
110	0xbec508a8	-0.38483167
111	0x3dfda4a8	0.12384921
112	0xbd0f1f91	-0.034942213
113	0x3e3d5b8e	0.18491957
114	0x3d9ddbc3	0.07707932
115	0x3e0ca0e5	0.13733251
116	0xbe83e365	-0.25759426
117	0x3e0becab	0.136645
118	0xbe89bea2	-0.26903254
119	0x3d978578	0.07398504
120	0xbda25b62	-0.07927586
121	0xbb3637ca	-0.002780425
122	0xbe69d31c	-0.22834438
123	0xbe26cbe1	-0.16288711
124	0x3d945851	0.072434075
125	0xbe05d71a	-0.13070336
126	0xbdb635fb	-0.08897015
127	0xbd87f767	-0.06638985
128	0x3e55beed	0.20873614
129	0x3db0e37e	0.08637141
130	0x3c0a14a4	0.008427773
131	0x3e992888	0.29913735
132	0x3e42b6ca	0.19015041
133	0xbe4d0ce2	-0.20024446
134	0xbde76746	-0.11298995
135	0xbddd71ce	-0.10812722
136	0xbe2f9fe1	-0.17150833
137	0x3e36a9bf	0.1783819
138	0x3d507f95	0.05090292
139	0x3a653639	0.00087437365
140	0x3e41369f	0.18868493
141	0x3e2c65e6	0.16835746
142	0xbd01d27e	-0.03169488
143	0x3d7305f2	0.05933184
144	0xbb8d3c41	-0.0043101613
145	0xbe86ab6a	-0.26302654
146	0x3c4f0bd8	0.012637101
147	0x3c76ec5f	0.015071004
148	0xbe2079b7	-0.1567143
149	0xbd4a113b	-0.04933284
150	0xbe299277	-0.16559778
151	0xbe027fab	-0.12744014
152	0xbc6b458a	-0.014359841
153	0xbd5ae189	-0.053437743
154	0x3d491429	0.04909149
155	0xbd7bf5ed	-0.06151383
156	0x3c42e0da	0.011894429
157	0xbe4583d6	-0.19288573
158	0x3ea7c747	0.32769224
159	0xbbc38948	-0.005967293
160	0xbe747d94	-0.23876029
161	0xbd586534	-0.05283089
162	0x3cfd8840	0.030948758
163	0xbe82f0ef	-0.25574443
164	0x3cb5a797	0.02217464
165	0x3d1f0e1c	0.038831815
166	0xbe061460	-0.1309371
167	0x3cbafc38	0.022825345
168	0xbe392777	-0.18081461
169	0xbdeb466e	-0.11488043
170	0x3d1d6260	0.038423896
171	0xbd9e7f1a	-0.077390864
172	0x3dc1b338	0.094580114
173	0x3da602dd	0.08106015
174	0x3e26774f	0.1625645
175	0xbe566206	-0.2093583
176	0x3d815da9	0.063166924
177	0xbebeb0da	-0.37244302
178	0xbd7515c5	-0.059835214
179	0x3dc8bf33	0.09802093
180	0xbdafb12a	-0.08578713
181	0xbd86e9d0	-0.06587565
182	0xbe3b5049	-0.18292345
183	0x3d0f1ea9	0.03494135
184	0x3e1646ee	0.14675495
185	0x3e801420	0.25015354
186	0xbd2c40a2	-0.042053826
187	0x3e09acf9	0.1344489
188	0x3d9ab30a	0.0755368
189	0x3e5b88a5	0.21438845
190	0xbdd9712a	-0.106172875
191	0xbbb3f5ac	-0.005491933
192	0xbe910584	-0.2832452
193	0x3d8f6f5f	0.07003664
194	0x3e8efe09	0.27928188
195	0x3d796c0c	0.060894057
196	0xbe0e6ab6	-0.13907894
197	0x3d87d84e	0.06633054
198	0xbd21a213	-0.039461207
199	0xbdb1a170	-0.0867337
200	0x3e4212fa	0.18952551
201	0xbe192b34	-0.14957887
202	0x3dde9646	0.10868506
203	0x3d68ffcb	0.05688457
204	0xbd6dc748	-0.058051378
205	0xbe07f566	-0.13277206
206	0xbe3ae5bf	-0.18251704
207	0xbdbf4ea3	-0.09341171
208	0xbe3d647d	-0.18495364
209	0xbe00d12f	-0.12579797
210	0x3daae617	0.083446674
211	0xbe1054c7	-0.1409484
212	0xbe8d2ac0	-0.27571678
213	0x3de028cc	0.109452814
214	0xbd93367d	-0.07188127
215	0x3ec798c3	0.38983735
216	0x3c90cb7c	0.017675154
217	0xbdd3e87c	-0.10347077
218	0xbe4d8249	-0.20069231
219	0xbe15fe3b	-0.14647762
220	0x3e8c08ee	0.27350563
221	0xbd98787f	-0.07444858
222	0x3e1e1203	0.15436558
223	0x3e4ed587	0.20198642
224	0xbd970bd4	-0.07375303
225	0xbe39287a	-0.18081847
226	0x3e4924a7	0.19642888
227	0x3d17c9c1	0.037057642
228	0xbb65547f	-0.003499299
229	0x3dfb3da1	0.12267614
230	0xbda929ae	-0.08259903
231	0xbe5d3140	-0.21600819
232	0x3dab2bd4	0.08357969
233	0x3d903bd8	0.07042664
234	0x3e4e67ef	0.20156835
235	0x3c1262b4	0.0089346655
236	0xbdaae095	-0.08343617
237	0xbe3b96f0	-0.18319297
238	0x3e5a1ced	0.21300097
239	0x3da83cef	0.08214747
240	0x3eb1a0f7	0.3469312
241	0xbe8a6109	-0.27027157
242	0xbdb3ee8a	-0.08785732
243	0xbd923a3e	-0.07140015
244	0xbe5cf15a	-0.21576443
245	0x3e1bdb9c	0.15220493
246	0xbe6280cc	-0.22119445
247	0x3cd29cfb	0.02570962
248	0xbd63a2bb	-0.055575114
249	0xbe11203f	-0.14172457
250	0x3deaa6a2	0.11457564
251	0x3dd22415	0.10260788
252	0xbd40c8fb	-0.04706667
253	0x3e77ac46	0.24186811
254	0xbada0a17	-0.0016635087
255	0x3e04664e	0.12929651

sequential_1/conv2d_reparameterization_3/123448 f4 [128]
0	0x3d7840c1	0.06060863
1	0x3c80e8eb	0.015736064
2	0xbd74156c	-0.059590742
3	0xbd769a85	-0.060205955
4	0x3b3fad70	0.0029247664
5	0xbe14f26e	-0.14545605
6	0xbda20c1a	-0.079124644
7	0xbdfe8776	-0.12428181
8	0x3e7301df	0.23731183
9	0xbd5c1076	-0.053726636
10	0xbda2d60e	-0.07950984
11	0x3d6b0a86	0.057383083
12	0xbcb10224	-0.021607466
13	0x3e7fdc69	0.24986424
14	0x3b303bb2	0.002689105
15	0xbe46ce33	-0.19414596
16	0xbdfb445b	-0.12268897
17	0xbda22904	-0.07917979
18	0x3d1435ed	0.03618424
19	0xbdaf3314	-0.08554664
20	0xbe0b91ca	-0.13629833
21	0x3d225553	0.039632153
22	0x3cfb8d3a	0.03070699
23	0x3dbc6c47	0.0920034
24	0xbd1bd40b	-0.038044017
25	0xbab44918	-0.0013754694
26	0x3d0b3b7e	0.033992283
27	0xbd59276a	-0.053016104
28	0xbdc0a90a	-0.09407242
29	0xbe591c4d	-0.21202202
30	0xbd87c3e8	-0.06629163
31	0xbd2fbf19	-0.042906854
32	0x3dbc823d	0.092045285
33	0x3da45dcb	0.08025702
34	0xbdca3b12	-0.09874548
35	0xbc88df51	-0.016708048
36	0x3d7c8ae9	0.061655913
37	0xbd1fcfbe	-0.039016478
38	0x3c997b94	0.018735684
39	0xbe10b82b	-0.14132755
40	0xbdf340cc	-0.118775934
41	0x3d08082a	0.03321091
42	0xbc5a9a40	-0.01334244
43	0x3d6c1f52	0.057647057
44	0xbd841d8e	-0.064509496
45	0x3d3dcafa	0.04633615
46	0xbdc0d45f	-0.094155066
47	0xbc144b3d	-0.009051141
48	0x3da6742b	0.08127626
49	0xbe51fec5	-0.20507343
50	0xbdbd98a6	-0.09257631
51	0x3c3ba7b9	0.011453562
52	0xbda5a473	-0.08088007
53	0xbe70ea1a	-0.23526803
54	0xbc67f1b1	-0.014156745
55	0x3e28ef03	0.16497426
56	0x3de00a36	0.109394476
57	0x3e00119b	0.12506716
58	0xbdcffbe9	-0.1015547
59	0xbd00f76d	-0.031485964
60	0xbcfbe06b	-0.03074666
61	0xbda09b07	-0.07842069
62	0x3cc067d0	0.023487002
63	0xbd686213	-0.056734156
64	0xbd88e298	-0.06683844
65	0xbbad0779	-0.005280432
66	0x3d413155	0.047166187
67	0xbc8482b4	-0.016175605
68	0xbdda3cad	-0.10656104
69	0xbd84a366	-0.06476478
70	0xbc9df0fb	-0.019279948
71	0x3cb1eac7	0.021718396
72	0xbd942f07	-0.07235532
73	0xbd09215d	-0.033479083
74	0x3c345fc9	0.011009165
75	0x3e8a68ac	0.27032983
76	0xbe3c2d9e	-0.18376777
77	0x3d43a932	0.04776878
78	0xbe3c33b0	-0.18379092
79	0xbe29a424	-0.16566521
80	0xbe003d42	-0.12523368
81	0x3d22d0ee	0.039750032
82	0xbd2adfae	-0.041717224
83	0x3dbfda40	0.093678
84	0xbdef767e	-0.116925225
85	0x3d2825e7	0.04105177
86	0xbe45688a	-0.1927816
87	0xbd6724a3	-0.056431424
88	0x3b81f55c	0.0039660167
89	0x3d1fb56c	0.038991377
90	0xbe08feb2	-0.13378409
91	0x3e10ab71	0.141279
92	0x3d4af551	0.04955036
93	0xbda8e2d5	-0.0824639
94	0xbdc4081b	-0.095718585
95	0x3c398cd4	0.01132508
96	0xbe1789d5	-0.14798672
97	0xbe20077c	-0.15627855
98	0xbdd20e74	-0.10256663
99	0xbdee50bc	-0.116364926
100	0x3cc60a67	0.024174882
101	0x3d2af613	0.04173858
102	0x3e17f3ea	0.1483914
103	0xbd1e7f65	-0.03869571
104	0xbd8056d7	-0.062665634
105	0xbdbf74fa	-0.093484834
106	0xbaaaaff6	-0.0013022411
107	0xbcd8105d	-0.02637499
108	0x3d0faa65	0.03507461
109	0xbdc48685	-0.0959597
110	0x3d988dd6	0.07448928
111	0x3cf4846f	0.029848306
112	0x3dd81305	0.10550503
113	0xbdb52b25	-0.0884612
114	0x3df9a38d	0.12189398
115	0x3d4d8bf5	0.0501823
116	0xbe2fb3d2	-0.1715844
117	0x3e0662e4	0.13123661
118	0x3d799f65	0.060943026
119	0x3ce94951	0.028477343
120	0xbdb46faa	-0.08810361
121	0x3d8c47df	0.06849646
122	0xbde53ea7	-0.111935906
123	0xbd8bb791	-0.06822122
124	0xbe1b8a70	-0.15189528
125	0x3dbe1e9c	0.09283182
126	0x3d727d3d	0.059201468
127	0xbc01f3ab	-0.00793163

sequential_1/conv2d_reparameterization_2/123251 f4 [64]
0	0x3e6f3ca4	0.23362976
1	0x3d83ee15	0.06441895
2	0xbd9aa032	-0.07550086
3	0xbe6c9460	-0.23103476
4	0x3db8678d	0.09004126
5	0xbd824f66	-0.063628
6	0xbd5162a8	-0.051119477
7	0x3d43459e	0.047673814
8	0xbe04cb0d	-0.12968083
9	0xbd579a77	-0.052637544
10	0xbdf7bc0d	-0.12096415
11	0xbbafeda0	-0.0053689033
12	0x3dc7013d	0.09717033
13	0xbe05faf8	-0.13084018
14	0xbcfaed9e	-0.030630883
15	0xbd8e0c11	-0.06935895
16	0x3e2ef70f	0.17086433
17	0x3dbe59da	0.092944816
18	0xbe075575	-0.13216193
19	0x3c1997cc	0.00937457
20	0xbd57944e	-0.05263167
21	0x3b957819	0.004561436
22	0xbddc3b87	-0.107535414
23	0xbe2ab9e3	-0.16672473
24	0x3db4eff8	0.08834833
25	0xbe1cf79c	-0.1532883
26	0xbd61eb5e	-0.055156104
27	0xbbf12452	-0.007359066
28	0x3da86e2a	0.08224137
29	0xbe4b4351	-0.19849898
30	0xbcbb2d88	-0.02284886
31	0x3dd3fdbb	0.103511296
32	0xbd5b4b9a	-0.053538896
33	0x3cca7864	0.02471561
34	0xbdfd123b	-0.12356993
35	0x3da52881	0.08064366
36	0xbb0aed88	-0.0021198709
37	0xbcb01466	-0.021494102
38	0xbc04200f	-0.008064284
39	0xbe007381	-0.12544061
40	0xbd945532	-0.07242812
41	0xbd228ae2	-0.03968323
42	0x3ce0440f	0.027376203
43	0xbe316b95	-0.17326196
44	0xbb992ccd	-0.00467453
45	0xbdaa9880	-0.08329868
46	0x3c802ad6	0.015645426
47	0xbd65fcea	-0.0561494
48	0x3d443af8	0.0479078
49	0xbd2cb879	-0.042168114
50	0x3b4d17cc	0.0031294702
51	0xbca90b30	-0.020635217
52	0x3d1fc278	0.03900382
53	0x3dafcbcb	0.08583792
54	0xbc9018b9	-0.017589914
55	0xbe30cc58	-0.17265451
56	0xbd85ed74	-0.06539431
57	0xbd9c09a6	-0.07619028
58	0x3c98075c	0.018558197
59	0xbe52a1b8	-0.20569503
60	0x3e18d251	0.1492398
61	0xbe3b55bb	-0.18294422
62	0x3dd0fbd3	0.10204282
63	0x3d931bcf	0.071830384

sequential_1/conv2d_reparameterization_1/123054 f4 [32]
0	0xbca85088	-0.020546213
1	0x3da31dbf	0.07964658
2	0x3dcd5767	0.10026436
3	0xbdc98bf0	-0.09841144
4	0x3d2f450a	0.04279045
5	0x3c211824	0.009832416
6	0x3d1018fe	0.035180084
7	0x3dbee24e	0.09320508
8	0x3dc13a65	0.09434966
9	0xbd557be3	-0.0521201
10	0xbd19be08	-0.037534744
11	0xbd479545	-0.04872634
12	0xbc96f3bf	-0.018426774
13	0xbcfc2692	-0.03078011
14	0xbcaff0f2	-0.021477196
15	0xbd7d105e	-0.061783187
16	0xbd54d568	-0.051961333
17	0xbd9fbd42	-0.0779977
18	0xbd94790b	-0.072496496
19	0xbe49ecc6	-0.19719228
20	0x3c27efac	0.010250013
21	0x3e3efbbc	0.18650717
22	0xbce3fb1a	-0.027829695
23	0x3e387a04	0.18015295
24	0xbd1fe549	-0.039037023
25	0xbcbdf0b6	-0.023186069
26	0x3cbf5e6a	0.02336045
27	0xbd49541e	-0.049152486
28	0xbbe552c7	-0.006998393
29	0xbcf310ef	-0.02967116
30	0xbd9a908c	-0.075471014
31	0xbd5d1d7b	-0.053983193

sequential_1/conv2d_reparameterization/122857 f4 [16]
0	0xbdae05d4	-0.084972054
1	0xbe40c14d	-0.18823738
2	0x3e4a7fff	0.19775389
3	0x3d13b8d5	0.03606494
4	0x3cd20f4d	0.025642062
5	0xbde6e67d	-0.11274431
6	0x3e0d21e2	0.13782457
7	0x3d888af7	0.066671304
8	0xbde57a9d	-0.11205027
9	0x3c12260c	0.008920204
10	0xbda5df0f	-0.08099186
11	0x39e6132a	0.00043883297
12	0xbdc4af95	-0.09603802
13	0xbd681596	-0.05666121
14	0x3de88681	0.113537796
15	0xbdb56949	-0.08857972

conv2d_reparameterization_Independentconv2d_reparameterization_Normal_1/sample/conv2d_reparameterization_Normal/sample/add;sequential_1/conv2d_reparameterization/StatefulPartitionedCall/conv2d_reparameterization_Independentconv2d_reparameterization_Normal_1/sample/conv2d_reparameterization_Normal/sample/add f4 [16]
0	0x3d45bb4c	0.048274323
1	0x3d24f129	0.04026905
2	0x3d3729cc	0.044717595
3	0x3d1b3576	0.03789278
4	0x3d22f4dc	0.039784297
5	0x3d1c9c15	0.03823479
6	0x3d173a10	0.036920607
7	0x3d280fbe	0.041030638
8	0x3d1fea4a	0.039041795
9	0x3d2efed3	0.042723488
10	0x3d240726	0.04004588
11	0x3d1abb6f	0.037776407
12	0x3d2ff300	0.042956352
13	0x3d2f7315	0.04283436
14	0x3d267cce	0.040646367
15	0x3d35b0df	0.04435813

conv2d_reparameterization_1_Independentconv2d_reparameterization_1_Normal_1/sample/conv2d_reparameterization_1_Normal/sample/add;sequential_1/conv2d_reparameterization_1/StatefulPartitionedCall/conv2d_reparameterization_1_Independentconv2d_reparameterization_1_Normal_1/sample/conv2d_reparameterization_1_Normal/sample/add f4 [32]
0	0x3d235415	0.03987511
1	0x3d3b5602	0.04573632
2	0x3d472473	0.048618745
3	0x3d314f40	0.04328847
4	0x3d368a12	0.044565268
5	0x3d3cfd5b	0.046140056
6	0x3d599e2e	0.053129368
7	0x3d43c72b	0.047797363
8	0x3d1bdec5	0.038054246
9	0x3d33dee9	0.043913756
10	0x3d3ea031	0.04653949
11	0x3d531062	0.051529296
12	0x3d1fb62c	0.038992092
13	0x3d4de2e2	0.0502652
14	0x3d60d0d8	0.05488667
15	0x3d5c75af	0.05382317
16	0x3d2d7cad	0.04235523
17	0x3d428ad4	0.047495678
18	0x3d10d87e	0.035362713
19	0x3d49477a	0.04914043
20	0x3d5b2b86	0.053508304
21	0x3d314db7	0.043287005
22	0x3d16045f	0.036625262
23	0x3d186224	0.03720297
24	0x3d342f84	0.043990627
25	0x3d51d429	0.051227722
26	0x3d3e3245	0.04643466
27	0x3d40f4f4	0.047108606
28	0x3d4cf3dd	0.050037254
29	0x3d26a6f1	0.04068655
30	0x3d22a3e0	0.039707065
31	0x3d400dc6	0.046888135

conv2d_reparameterization_2_Independentconv2d_reparameterization_2_Normal_1/sample/conv2d_reparameterization_2_Normal/sample/add;sequential_1/conv2d_reparameterization_2/StatefulPartitionedCall/conv2d_reparameterization_2_Independentconv2d_reparameterization_2_Normal_1/sample/conv2d_reparameterization_2_Normal/sample/add f4 [64]
0	0x3d64477f	0.055732246
1	0x3d44164c	0.047872826
2	0x3d4a09c4	0.04932572
3	0x3d8387ec	0.064224094
4	0x3d41cdb6	0.047315322
5	0x3d5d15ec	0.053975984
6	0x3d4bdb9b	0.04976998
7	0x3d574262	0.052553542
8	0x3d4bedea	0.04978744
9	0x3d76dcb7	0.060269084
10	0x3d656385	0.056003112
11	0x3d3b6b87	0.045756843
12	0x3d443008	0.04789737
13	0x3d37c359	0.044864032
14	0x3d3e28ca	0.04642562
15	0x3d4b5e4d	0.04965048
16	0x3d651751	0.05593044
17	0x3d343aec	0.044001505
18	0x3d594d60	0.053052306
19	0x3d7a587c	0.06111954
20	0x3d487a55	0.04894479
21	0x3d6a3edf	0.057188865
22	0x3d4a34ec	0.049366876
23	0x3d57d889	0.05269674
24	0x3d5532a9	0.052050266
25	0x3d5ac3cc	0.053409383
26	0x3d4c5d15	0.049893457
27	0x3d5b0e64	0.05348052
28	0x3d6505fe	0.055913918
29	0x3d55dbbb	0.052211504
30	0x3d3d86c0	0.046271086
31	0x3d3d6cd0	0.04624635
32	0x3d501ff6	0.05081173
33	0x3d3a42d0	0.045473874
34	0x3d45fd2a	0.04833714
35	0x3d41458d	0.04718547
36	0x3d3dfc14	0.04638298
37	0x3d5db357	0.05412611
38	0x3d59e364	0.053195372
39	0x3d37d54f	0.04488116
40	0x3d73a0ef	0.05947965
41	0x3d6d7c5b	0.057979923
42	0x3d4a9e21	0.04946721
43	0x3d7920db	0.06082235
44	0x3d45311a	0.04814253
45	0x3d412109	0.047150645
46	0x3d698f26	0.057021283
47	0x3d4fc38d	0.0507236
48	0x3d54eee7	0.051985648
49	0x3d53c3ba	0.05170033
50	0x3d3b9baa	0.04580275
51	0x3d52ed34	0.051495746
52	0x3d29d874	0.04146619
53	0x3d51f189	0.051255737
54	0x3d3f403d	0.04669212
55	0x3d49d0fc	0.04927157
56	0x3d658257	0.056032505
57	0x3d58e705	0.052954692
58	0x3d4ec99b	0.050485235
59	0x3d5c6cc7	0.053814676
60	0x3d3e0cea	0.046399035
61	0x3d53e402	0.051731117
62	0x3d4217cc	0.047385976
63	0x3d6b1859	0.057396267

conv2d_reparameterization_3_Independentconv2d_reparameterization_3_Normal_1/sample/conv2d_reparameterization_3_Normal/sample/add;sequential_1/conv2d_reparameterization_3/StatefulPartitionedCall/conv2d_reparameterization_3_Independentconv2d_reparameterization_3_Normal_1/sample/conv2d_reparameterization_3_Normal/sample/add f4 [128]
0	0x3d6b1d8f	0.057401236
1	0x3d79f614	0.061025694
2	0x3d84a656	0.064770386
3	0x3d6326d4	0.05545695
4	0x3d6afb7d	0.057368744
5	0x3d850941	0.06495906
6	0x3d7deb05	0.06199171
7	0x3d610a60	0.054941535
8	0x3d7b3eb9	0.061339114
9	0x3d7b753d	0.061391104
10	0x3d637647	0.05553272
11	0x3d807f61	0.062742956
12	0x3d80f1eb	0.06296142
13	0x3d92aabb	0.071614705
14	0x3d837a90	0.06419861
15	0x3d5bc448	0.053653985
16	0x3d8aeb99	0.06783218
17	0x3d8e1990	0.069384694
18	0x3d81f3a7	0.06345301
19	0x3d6c2ec5	0.05766179
20	0x3d84e6b9	0.06489319
21	0x3d46bffd	0.048522938
22	0x3d9659da	0.073413566
23	0x3d7a41da	0.061097957
24	0x3d8126f2	0.06306256
25	0x3d6dd389	0.058063064
26	0x3d61cbf6	0.055126153
27	0x3d7ca262	0.061678298
28	0x3d776316	0.06039723
29	0x3d8cd96c	0.068774074
30	0x3d556f4e	0.0521081
31	0x3d5daa40	0.05411744
32	0x3d7defd9	0.061996315
33	0x3d85b194	0.06528011
34	0x3d718276	0.058962308
35	0x3d8b5f0a	0.06805237
36	0x3d86cb6b	0.06581768
37	0x3d711cfa	0.058865525
38	0x3d7bb42a	0.061451115
39	0x3d9511ef	0.07278811
40	0x3d89519d	0.067050196
41	0x3d6787aa	0.056525864
42	0x3d603ead	0.054747272
43	0x3d7277f2	0.05919642
44	0x3d77eb09	0.06052688
45	0x3d66d309	0.056353603
46	0x3d548976	0.051888905
47	0x3d8275a6	0.06370096
48	0x3d6a33cb	0.0571783
49	0x3d8d0cb8	0.068871915
50	0x3d797395	0.060901243
51	0x3d46813c	0.04846309
52	0x3d70fe78	0.05883643
53	0x3d5a6a10	0.053323805
54	0x3d769a5c	0.060205802
55	0x3d7f208f	0.06228691
56	0x3d66e661	0.05637205
57	0x3d5c4969	0.053780947
58	0x3d8829bd	0.06648586
59	0x3d8e3698	0.06944007
60	0x3d862ee3	0.06551912
61	0x3d640a63	0.055673968
62	0x3d7cff8d	0.06176715
63	0x3d5f77ff	0.054557797
64	0x3d88d6e5	0.06681613
65	0x3d833bc1	0.064078815
66	0x3d90b527	0.07065802
67	0x3d8f4633	0.06995811
68	0x3d793c47	0.0608485
69	0x3d7b6fe9	0.061386023
70	0x3d508015	0.0509034
71	0x3d6e28a4	0.058144227
72	0x3d75e3f3	0.060031842
73	0x3d483727	0.048880722
74	0x3d84341e	0.06455253
75	0x3d78beb2	0.060728736
76	0x3d81db47	0.06340652
77	0x3d4d9067	0.05018654
78	0x3d68bd21	0.056820992
79	0x3d899534	0.06717911
80	0x3d7b8216	0.061403356
81	0x3d83a76a	0.06428416
82	0x3d5cdcbb	0.053921442
83	0x3d7b7c21	0.061397675
84	0x3d5828b3	0.05277319
85	0x3d7ad051	0.061233822
86	0x3d62a837	0.055336203
87	0x3d5ad180	0.05342245
88	0x3d7ebe7c	0.06219338
89	0x3d6b4119	0.05743513
90	0x3d7c27fb	0.061561566
91	0x3d71fd43	0.05907942
92	0x3d822eac	0.06356558
93	0x3d5debc4	0.05417992
94	0x3d874b62	0.06606175
95	0x3d7a6963	0.06113566
96	0x3d58975e	0.05287873
97	0x3d3fb262	0.04680098
98	0x3d6b88f1	0.057503644
99	0x3d6fda7e	0.05855798
100	0x3d7e32ef	0.062060293
101	0x3d67c94a	0.05658845
102	0x3d85a30a	0.06525238
103	0x3d5efc2a	0.0544397
104	0x3d8a9497	0.067666225
105	0x3d64235c	0.055697784
106	0x3d57acbd	0.05265497
107	0x3d71a380	0.058993816
108	0x3d86fa86	0.06590752
109	0x3d800d42	0.06252529
110	0x3d77a35d	0.06045853
111	0x3d97ee40	0.074184895
112	0x3d7d9490	0.06190926
113	0x3d8a0e25	0.06740979
114	0x3d8975a3	0.067118905
115	0x3d880fd3	0.06643643
116	0x3d4dacdc	0.05021368
117	0x3d60524f	0.054765996
118	0x3d781fee	0.060577326
119	0x3d592825	0.0530168
120	0x3d863de6	0.06554775
121	0x3d85140d	0.06497965
122	0x3d630e34	0.055433467
123	0x3d76e5a5	0.0602776
124	0x3d7035b3	0.05864496
125	0x3d68a902	0.056801803
126	0x3d849130	0.06473005
127	0x3d7adf27	0.06124797

dense_reparameterization_Independentdense_reparameterization_Normal/sample/dense_reparameterization_Normal/sample/add;sequential_1/dense_reparameterization/StatefulPartitionedCall/dense_reparameterization_Independentdense_reparameterization_Normal/sample/dense_reparameterization_Normal/sample/add f4 [128, 10]
0	0x3d4f12de	0.050555103
1	0x3d39615c	0.045258865
2	0x3d80164b	0.06254252
3	0x3d54b425	0.05192961
4	0x3d34970e	0.04408937
5	0x3d3f8be6	0.046764277
6	0x3d58d030	0.052932918
7	0x3d5f655a	0.054540016
8	0x3d381689	0.044943366
9	0x3d600a6e	0.054697447
10	0x3d4562e2	0.048190005
11	0x3d51a431	0.051181976
12	0x3d68405a	0.056701995
13	0x3d68d984	0.056848064
14	0x3d5c4740	0.053778887
15	0x3d5ee503	0.05441762
16	0x3d4f402d	0.050598312
17	0x3d4c42c6	0.049868368
18	0x3d3b22bb	0.04568742
19	0x3d5dcd2a	0.054150738
20	0x3d573359	0.052539203
21	0x3d6aebda	0.05735383
22	0x3d5ba09d	0.05361997
23	0x3d403fea	0.046935953
24	0x3d545b6b	0.051844995
25	0x3d3e5c19	0.04647455
26	0x3d501b59	0.05080733
27	0x3d3797c5	0.044822473
28	0x3d471cb4	0.048611358
29	0x3d4827ee	0.048866205
30	0x3d813423	0.063087724
31	0x3d37c0e5	0.044861693
32	0x3d5dfc00	0.054195404
33	0x3d330f5f	0.04371583
34	0x3d46837b	0.048465233
35	0x3d42ec37	0.047588553
36	0x3d81959f	0.06327366
37	0x3d52e927	0.051491883
38	0x3d35c289	0.044374976
39	0x3d4a2919	0.0493556
40	0x3d2d7792	0.04235036
41	0x3d482466	0.048862837
42	0x3d440b20	0.047862172
43	0x3d482539	0.048863623
44	0x3d25b39e	0.0404545
45	0x3d4864b8	0.048924178
46	0x3d5d28a6	0.053993843
47	0x3d1f7325	0.03892817
48	0x3d505ccc	0.050869748
49	0x3d2e49cd	0.04255085
50	0x3d59b441	0.05315042
51	0x3d42eb3d	0.047587622
52	0x3d3a2e31	0.045454208
53	0x3d4e0773	0.050300073
54	0x3d89bb6b	0.067252
55	0x3d5d93c0	0.054095984
56	0x3d4b696a	0.049661078
57	0x3d49146f	0.049091753
58	0x3d55e7ad	0.052222896
59	0x3d5a1703	0.053244602
60	0x3d6afe64	0.057371512
61	0x3d5cf0a5	0.053940434
62	0x3d2b75aa	0.04186026
63	0x3d2fdaf1	0.04293341
64	0x3d407be7	0.046993162
65	0x3d492d69	0.049115572
66	0x3d50b4d1	0.05095369
67	0x3d40ebd4	0.047099903
68	0x3d307bbc	0.043086752
69	0x3d483dbc	0.048887
70	0x3d3469a1	0.044046048
71	0x3d252a3f	0.040323492
72	0x3d52779e	0.051383607
73	0x3d487095	0.04893549
74	0x3d39a504	0.045323387
75	0x3d4cff71	0.050048295
76	0x3d3a2361	0.045443896
77	0x3d5d8f45	0.05409171
78	0x3d426653	0.047460865
79	0x3d49faa8	0.04931131
80	0x3d47ca6e	0.048777036
81	0x3d6ccead	0.05781429
82	0x3d242391	0.04007298
83	0x3d3d1b6e	0.046168737
84	0x3d618b87	0.055064704
85	0x3d4abda3	0.049497258
86	0x3d614188	0.054994136
87	0x3d4c6bb8	0.049907416
88	0x3d35d471	0.044392053
89	0x3d42dc8c	0.04757361
90	0x3d54195f	0.05178201
91	0x3d5900ec	0.052979395
92	0x3d442f6d	0.04789679
93	0x3d52e870	0.0514912
94	0x3d3b7cb1	0.045773212
95	0x3d58c514	0.052922323
96	0x3d57f11b	0.05272017
97	0x3d587efa	0.05285547
98	0x3d499f63	0.04922427
99	0x3d6de083	0.05807544
100	0x3d559a62	0.052149184
101	0x3d332c2d	0.0437433
102	0x3d609259	0.054827068
103	0x3d52a425	0.05142607
104	0x3d32036f	0.043460306
105	0x3d499078	0.04921004
106	0x3d4bf1f2	0.049791284
107	0x3d349cdf	0.044094916
108	0x3d47bf9c	0.048766717
109	0x3d457f35	0.048217017
110	0x3d7c46eb	0.06159107
111	0x3d4139cf	0.04717427
112	0x3d42f947	0.04760101
113	0x3d2c1a9e	0.04201757
114	0x3d3d5d64	0.046231642
115	0x3d3594dd	0.04433142
116	0x3d7e92b5	0.06215163
117	0x3d302229	0.043001328
118	0x3d474a15	0.048654635
119	0x3d3fd3a5	0.0468327
120	0x3d4e5a40	0.050379038
121	0x3d1af072	0.037826963
122	0x3d52b9a1	0.05144656
123	0x3d58128f	0.052752074
124	0x3d2abfbf	0.04168677
125	0x3d523191	0.0513168
126	0x3d4bb321	0.049731378
127	0x3d3cec74	0.046123937
128	0x3d585541	0.05281568
129	0x3d18e6bd	0.037329424
130	0x3d524ea3	0.051344525
131	0x3d5d725d	0.054064143
132	0x3d4ae23a	0.049532153
133	0x3d609a15	0.054834444
134	0x3d643f98	0.05572471
135	0x3d63de1c	0.055631742
136	0x3d5738b6	0.05254432
137	0x3d3056cd	0.04305153
138	0x3d3d629a	0.046236612
139	0x3d2e402e	0.042541675
140	0x3d360754	0.044440582
141	0x3d3ca070	0.046051443
142	0x3d53ce2e	0.0517103
143	0x3d6e2bf6	0.058147393
144	0x3d5f3f80	0.054503918
145	0x3d5d2af5	0.053996045
146	0x3d512378	0.051059216
147	0x3d45fcdf	0.04833686
148	0x3d63f64f	0.05565482
149	0x3d55c187	0.052186515
150	0x3d509d5f	0.05093133
151	0x3d5e3144	0.054246202
152	0x3d4a2fb4	0.0493619
153	0x3d5b05db	0.05347238
154	0x3d42e83d	0.04758476
155	0x3d454ac0	0.04816699
156	0x3d4b6599	0.049657438
157	0x3d68f9d3	0.056878876
158	0x3d3c983d	0.046043623
159	0x3d37c3f9	0.04486463
160	0x3d654ad7	0.055979576
161	0x3d6cff18	0.057860464
162	0x3d45d0da	0.04829488
163	0x3d7dd285	0.061968345
164	0x3d423c4d	0.04742079
165	0x3d5c2d21	0.053753976
166	0x3d79af5b	0.060958248
167	0x3d4bd5e4	0.04976453
168	0x3d4ed054	0.050491646
169	0x3d5570a5	0.05210938
170	0x3d638c89	0.055553947
171	0x3d5162e9	0.05111972
172	0x3d5e23ab	0.054233234
173	0x3d40d035	0.04707356
174	0x3d312710	0.043250144
175	0x3d485cc0	0.04891658
176	0x3d4af57c	0.04955052
177	0x3d49acd4	0.049237087
178	0x3d411f76	0.047149144
179	0x3d20f38c	0.039294764
180	0x3d664d82	0.05622626
181	0x3d4f739d	0.050647367
182	0x3d79b298	0.060961336
183	0x3d47bf07	0.048766162
184	0x3d477790	0.048698008
185	0x3d34d400	0.04414749
186	0x3d59ec88	0.05320409
187	0x3d298f0f	0.041396197
188	0x3d6341cf	0.05548268
189	0x3d292090	0.04129082
190	0x3d6fae5c	0.05851589
191	0x3d6c6d80	0.057721615
192	0x3d547e1c	0.05187808
193	0x3d68a0e1	0.05679405
194	0x3d555857	0.0520862
195	0x3d5fbf75	0.054625947
196	0x3d6f5d5c	0.058438644
197	0x3d48456b	0.048894327
198	0x3d5ee539	0.054417823
199	0x3d4ec589	0.050481353
200	0x3d4583bb	0.04822133
201	0x3d490c7f	0.049084183
202	0x3d28deeb	0.041228216
203	0x3d438dcd	0.047742654
204	0x3d35f0fe	0.04441928
205	0x3d46da7d	0.04854821
206	0x3d403701	0.046927456
207	0x3d4fac03	0.050701153
208	0x3d4eac8c	0.050457522
209	0x3d2f7cb5	0.04284354
210	0x3d3f3010	0.046676695
211	0x3d60f65b	0.054922443
212	0x3d3c7ca4	0.046017304
213	0x3d28f220	0.041246533
214	0x3d641ba4	0.055690423
215	0x3d250f9c	0.04029809
216	0x3d3369a6	0.043801926
217	0x3d4b0990	0.049569666
218	0x3d3d5b8a	0.046229877
219	0x3d3f58aa	0.046715416
220	0x3d38f309	0.04515365
221	0x3d58745e	0.05284535
222	0x3d61db80	0.055140972
223	0x3d4a3e71	0.049375955
224	0x3d3c5026	0.045974873
225	0x3d6ff25f	0.058580752
226	0x3d79189e	0.060814492
227	0x3d589f45	0.052886266
228	0x3d55fc77	0.052242722
229	0x3d45e273	0.048311662
230	0x3d42061b	0.047369104
231	0x3d61b2dd	0.055102218
232	0x3d32c43c	0.043644175
233	0x3d4772ba	0.048693396
234	0x3d2c75ba	0.04210446
235	0x3d2131d7	0.03935417
236	0x3d742846	0.05960872
237	0x3d368632	0.044561572
238	0x3d38cc82	0.04511691
239	0x3d313556	0.043263756
240	0x3d525310	0.051348746
241	0x3d65fb40	0.056147814
242	0x3d473732	0.048636623
243	0x3d3294f3	0.04359908
244	0x3d5c8796	0.053840242
245	0x3d3cd6e2	0.046103366
246	0x3d3c2539	0.045933936
247	0x3d30fb51	0.043208424
248	0x3d4618c0	0.048363447
249	0x3d5b633d	0.053561438
250	0x3d47a7c3	0.048743974
251	0x3d66d3c6	0.056354307
252	0x3d42be6c	0.04754488
253	0x3d32fe93	0.043699812
254	0x3d6793ba	0.056537367
255	0x3d57b7cf	0.052665528

dense_reparameterization_Independentdense_reparameterization_Normal_1/sample/dense_reparameterization_Normal/sample/add;sequential_1/dense_reparameterization/StatefulPartitionedCall/dense_reparameterization_Independentdense_reparameterization_Normal_1/sample/dense_reparameterization_Normal/sample/add f4 [10]
0	0x3d51e7fa	0.05124662
1	0x3d6e09b3	0.05811472
2	0x3d6e0bb4	0.05811663
3	0x3d3b5880	0.045738697
4	0x3d46d82f	0.048546012
5	0x3d588906	0.05286505
6	0x3d460da3	0.04835285
7	0x3d46b805	0.04851534
8	0x3d5bd22b	0.05366723
9	0x3d4b3575	0.049611527

Conv2D;sequential_1/conv2d_reparameterization/StatefulPartitionedCall/Conv2D f4 [16]
0	0x00000000	0.0
1	0x00000000	0.0
2	0x00000000	0.0
3	0x00000000	0.0
4	0x00000000	0.0
5	0x00000000	0.0
6	0x00000000	0.0
7	0x00000000	0.0
8	0x00000000	0.0
9	0x00000000	0.0
10	0x00000000	0.0
11	0x00000000	0.0
12	0x00000000	0.0
13	0x00000000	0.0
14	0x00000000	0.0
15	0x00000000	0.0

Conv2D;sequential_1/conv2d_reparameterization_1/StatefulPartitionedCall/Conv2D f4 [32]
0	0x00000000	0.0
1	0x00000000	0.0
2	0x00000000	0.0
3	0x00000000	0.0
4	0x00000000	0.0
5	0x00000000	0.0
6	0x00000000	0.0
7	0x00000000	0.0
8	0x00000000	0.0
9	0x00000000	0.0
10	0x00000000	0.0
11	0x00000000	0.0
12	0x00000000	0.0
13	0x00000000	0.0
14	0x00000000	0.0
15	0x00000000	0.0
16	0x00000000	0.0
17	0x00000000	0.0
18	0x00000000	0.0
19	0x00000000	0.0
20	0x00000000	0.0
21	0x00000000	0.0
22	0x00000000	0.0
23	0x00000000	0.0
24	0x00000000	0.0
25	0x00000000	0.0
26	0x00000000	0.0
27	0x00000000	0.0
28	0x00000000	0.0
29	0x00000000	0.0
30	0x00000000	0.0
31	0x00000000	0.0

Conv2D;sequential_1/conv2d_reparameterization_2/StatefulPartitionedCall/Conv2D f4 [64]
0	0x00000000	0.0
1	0x00000000	0.0
2	0x00000000	0.0
3	0x00000000	0.0
4	0x00000000	0.0
5	0x00000000	0.0
6	0x00000000	0.0
7	0x00000000	0.0
8	0x00000000	0.0
9	0x00000000	0.0
10	0x00000000	0.0
11	0x00000000	0.0
12	0x00000000	0.0
13	0x00000000	0.0
14	0x00000000	0.0
15	0x00000000	0.0
16	0x00000000	0.0
17	0x00000000	0.0
18	0x00000000	0.0
19	0x00000000	0.0
20	0x00000000	0.0
21	0x00000000	0.0
22	0x00000000	0.0
23	0x00000000	0.0
24	0x00000000	0.0
25	0x00000000	0.0
26	0x00000000	0.0
27	0x00000000	0.0
28	0x00000000	0.0
29	0x00000000	0.0
30	0x00000000	0.0
31	0x00000000	0.0
32	0x00000000	0.0
33	0x00000000	0.0
34	0x00000000	0.0
35	0x00000000	0.0
36	0x00000000	0.0
37	0x00000000	0.0
38	0x00000000	0.0
39	0x00000000	0.0
40	0x00000000	0.0
41	0x00000000	0.0
42	0x00000000	0.0
43	0x00000000	0.0
44	0x00000000	0.0
45	0x00000000	0.0
46	0x00000000	0.0
47	0x00000000	0.0
48	0x00000000	0.0
49	0x00000000	0.0
50	0x00000000	0.0
51	0x00000000	0.0
52	0x00000000	0.0
53	0x00000000	0.0
54	0x00000000	0.0
55	0x00000000	0.0
56	0x00000000	0.0
57	0x00000000	0.0
58	0x00000000	0.0
59	0x00000000	0.0
60	0x00000000	0.0
61	0x00000000	0.0
62	0x00000000	0.0
63	0x00000000	0.0

Conv2D;sequential_1/conv2d_reparameterization_3/StatefulPartitionedCall/Conv2D f4 [128]
0	0x00000000	0.0
1	0x00000000	0.0
2	0x00000000	0.0
3	0x00000000	0.0
4	0x00000000	0.0
5	0x00000000	0.0
6	0x00000000	0.0
7	0x00000000	0.0
8	0x00000000	0.0
9	0x00000000	0.0
10	0x00000000	0.0
11	0x00000000	0.0
12	0x00000000	0.0
13	0x00000000	0.0
14	0x00000000	0.0
15	0x00000000	0.0
16	0x00000000	0.0
17	0x00000000	0.0
18	0x00000000	0.0
19	0x00000000	0.0
20	0x00000000	0.0
21	0x00000000	0.0
22	0x00000000	0.0
23	0x00000000	0.0
24	0x00000000	0.0
25	0x00000000	0.0
26	0x00000000	0.0
27	0x00000000	0.0
28	0x00000000	0.0
29	0x00000000	0.0
30	0x00000000	0.0
31	0x00000000	0.0
32	0x00000000	0.0
33	0x00000000	0.0
34	0x00000000	0.0
35	0x00000000	0.0
36	0x00000000	0.0
37	0x00000000	0.0
38	0x00000000	0.0
39	0x00000000	0.0
40	0x00000000	0.0
41	0x00000000	0.0
42	0x00000000	0.0
43	0x00000000	0.0
44	0x00000000	0.0
45	0x00000000	0.0
46	0x00000000	0.0
47	0x00000000	0.0
48	0x00000000	0.0
49	0x00000000	0.0
50	0x00000000	0.0
51	0x00000000	0.0
52	0x00000000	0.0
53	0x00000000	0.0
54	0x00000000	0.0
55	0x00000000	0.0
56	0x00000000	0.0
57	0x00000000	0.0
58	0x00000000	0.0
59	0x00000000	0.0
60	0x00000000	0.0
61	0x00000000	0.0
62	0x00000000	0.0
63	0x00000000	0.0
64	0x00000000	0.0
65	0x00000000	0.0
66	0x00000000	0.0
67	0x00000000	0.0
68	0x00000000	0.0
69	0x00000000	0.0
70	0x00000000	0.0
71	0x00000000	0.0
72	0x00000000	0.0
73	0x00000000	0.0
74	0x00000000	0.0
75	0x00000000	0.0
76	0x00000000	0.0
77	0x00000000	0.0
78	0x00000000	0.0
79	0x00000000	0.0
80	0x00000000	0.0
81	0x00000000	0.0
82	0x00000000	0.0
83	0x00000000	0.0
84	0x00000000	0.0
85	0x00000000	0.0
86	0x00000000	0.0
87	0x00000000	0.0
88	0x00000000	0.0
89	0x00000000	0.0
90	0x00000000	0.0
91	0x00000000	0.0
92	0x00000000	0.0
93	0x00000000	0.0
94	0x00000000	0.0
95	0x00000000	0.0
96	0x00000000	0.0
97	0x00000000	0.0
98	0x00000000	0.0
99	0x00000000	0.0
100	0x00000000	0.0
101	0x00000000	0.0
102	0x00000000	0.0
103	0x00000000	0.0
104	0x00000000	0.0
105	0x00000000	0.0
106	0x00000000	0.0
107	0x00000000	0.0
108	0x00000000	0.0
109	0x00000000	0.0
110	0x00000000	0.0
111	0x00000000	0.0
112	0x00000000	0.0
113	0x00000000	0.0
114	0x00000000	0.0
115	0x00000000	0.0
116	0x00000000	0.0
117	0x00000000	0.0
118	0x00000000	0.0
119	0x00000000	0.0
120	0x00000000	0.0
121	0x00000000	0.0
122	0x00000000	0.0
123	0x00000000	0.0
124	0x00000000	0.0
125	0x00000000	0.0
126	0x00000000	0.0
127	0x00000000	0.0

conv2d_reparameterization_Independentconv2d_reparameterization_Normal/sample/conv2d_reparameterization_Normal/sample/mul;sequential_1/conv2d_reparameterization/StatefulPartitionedCall/conv2d_reparameterization_Independentconv2d_reparameterization_Normal/sample/conv2d_reparameterization_Normal/sample/mul f4 [1, 3, 3, 1, 16]
0	0x3d35c582	0.04437781
1	0x3d3f34ff	0.0466814
2	0x3d35f322	0.044421323
3	0x3d653407	0.05595782
4	0x3d3bd060	0.04585302
5	0x3d43073f	0.047614332
6	0x3d27b0af	0.040939983
7	0x3d3d05cc	0.046148106
8	0x3d2a3e93	0.04156358
9	0x3d569913	0.052392077
10	0x3d3e5ace	0.046473317
11	0x3d429cc3	0.04751278
12	0x3d45ae6f	0.048262056
13	0x3d3cd01b	0.046096902
14	0x3d4a0c4f	0.049328145
15	0x3d537a62	0.051630385
16	0x3d38fcc5	0.045162935
17	0x3d350768	0.044196516
18	0x3d450f1e	0.04811012
19	0x3d68707b	0.056747895
20	0x3d3a899d	0.045541395
21	0x3d3478cc	0.044060513
22	0x3d2fba10	0.042902052
23	0x3d358716	0.04431828
24	0x3d415b0e	0.047205977
25	0x3d3b7203	0.045763027
26	0x3d414bf9	0.047191594
27	0x3d4b1204	0.049577728
28	0x3d43eff1	0.047836248
29	0x3d2d5581	0.04231787
30	0x3d6fe370	0.05856651
31	0x3d3bdafc	0.045863137
32	0x3d3fdb7e	0.046840183
33	0x3d1a40d4	0.03765948
34	0x3d544a92	0.05182893
35	0x3d784f1b	0.060622316
36	0x3d449d63	0.04800166
37	0x3d22eebd	0.03977846
38	0x3d23e69e	0.040014856
39	0x3d3c8ae3	0.04603089
40	0x3d3bf650	0.0458892
41	0x3d33f313	0.043932986
42	0x3d303f7f	0.043029305
43	0x3d6e4eb5	0.05818053
44	0x3d30b1f4	0.04313846
45	0x3d2a4354	0.041568115
46	0x3d876632	0.06611289
47	0x3d312510	0.043248236
48	0x3d2f2571	0.042760316
49	0x3d43d514	0.04781063
50	0x3d63bed8	0.055601925
51	0x3d53f58b	0.05174784
52	0x3d3afd28	0.045651585
53	0x3d2c16ad	0.042013813
54	0x3d49941d	0.049213517
55	0x3d264c62	0.040600188
56	0x3d3652ba	0.044512488
57	0x3d3985cd	0.045293618
58	0x3d392405	0.045200367
59	0x3d3cb565	0.04607143
60	0x3d36f8d0	0.04467088
61	0x3d305ff6	0.043060265
62	0x3d72e323	0.059298646
63	0x3d445c9d	0.047939885
64	0x3d3324cc	0.043736264
65	0x3d5a1e4f	0.05325156
66	0x3d4f6973	0.050637674
67	0x3d6e4e3b	0.058180075
68	0x3d4e8666	0.05042114
69	0x3d363b5d	0.044490207
70	0x3d3a9774	0.045554593
71	0x3d3a211a	0.045441724
72	0x3d2d867b	0.04236458
73	0x3d5278cb	0.05138473
74	0x3d45266c	0.048132345
75	0x3d4a2c05	0.049358387
76	0x3d35a5cf	0.04434758
77	0x3d4abb65	0.04949512
78	0x3d489876	0.048973523
79	0x3d42fd9a	0.047605135
80	0x3d43d1f6	0.047807656
81	0x3d2e0ee2	0.042494662
82	0x3d3d6f21	0.04624856
83	0x3d71bcc5	0.059017915
84	0x3d414143	0.04718138
85	0x3d4a6876	0.049416028
86	0x3d5bd256	0.05366739
87	0x3d388d4c	0.045056626
88	0x3d1c9dee	0.03823655
89	0x3d49be32	0.04925365
90	0x3d3e0a1c	0.04639636
91	0x3d5a3c35	0.053280074
92	0x3d4ece3f	0.05048966
93	0x3d40cb1c	0.0470687
94	0x3d545e2e	0.05184763
95	0x3d547acd	0.051874924
96	0x3d2c923f	0.04213166
97	0x3d4cda9d	0.050013173
98	0x3d7133a6	0.058887146
99	0x3d44e440	0.04806924
100	0x3d2fac14	0.042888716
101	0x3d3ea3fa	0.0465431
102	0x3d2ad3fe	0.041706078
103	0x3d4c5049	0.049881253
104	0x3d521a33	0.051294517
105	0x3d2f2020	0.042755246
106	0x3d3e1075	0.046402413
107	0x3d59e99b	0.0532013
108	0x3d5ebdc2	0.054380186
109	0x3d35f21f	0.044420358
110	0x3d65f90e	0.05614572
111	0x3d52c819	0.05146036
112	0x3d3eb5be	0.04656004
113	0x3d39f5e0	0.0454005
114	0x3d5a9fa8	0.053374916
115	0x3d495248	0.049150735
116	0x3d361be1	0.04446018
117	0x3d1acf17	0.037795153
118	0x3d3bf49f	0.045887586
119	0x3d62018a	0.05517725
120	0x3d353b40	0.04424596
121	0x3d3dd3f3	0.04634471
122	0x3d30ccea	0.04316417
123	0x3d4554dc	0.04817663
124	0x3d58da23	0.052942406
125	0x3d3e22ff	0.046420094
126	0x3d63241e	0.055454366
127	0x3d266d54	0.040631607
128	0x3d34aa39	0.04410765
129	0x3d383dfa	0.04498098
130	0x3d3dcebf	0.046339747
131	0x3d3ea719	0.046546075
132	0x3d3f7aeb	0.046748083
133	0x3d2fc1a7	0.04290929
134	0x3d3de11b	0.046357255
135	0x3d60b91f	0.054864045
136	0x3d451e2a	0.04812447
137	0x3d53149e	0.051533334
138	0x3d31373f	0.043265577
139	0x3d6058fc	0.054772362
140	0x3d314a0a	0.0432835
141	0x3d23328e	0.039843135
142	0x3d4d579d	0.050132383
143	0x3d510f66	0.051040076

conv2d_reparameterization_Independentconv2d_reparameterization_Normal/sample/conv2d_reparameterization_Normal/sample/add_1;sequential_1/conv2d_reparameterization/StatefulPartitionedCall/conv2d_reparameterization_Independentconv2d_reparameterization_Normal/sample/conv2d_reparameterization_Normal/sample/add_1 f4 [1, 3, 3, 1, 16]
0	0x3d6a797e	0.05724477
1	0xbd91e4d3	-0.07123723
2	0xbd85adb9	-0.065272756
3	0xbeb4b811	-0.35296682
4	0x3e95bff3	0.29248008
5	0x3db53842	0.08848621
6	0x3e4bb7e5	0.19894369
7	0xbd990933	-0.07472458
8	0x3e387dc1	0.18016721
9	0x3e03c4d0	0.12868047
10	0x3d8a3dd8	0.06750077
11	0xbe0876ff	-0.13326643
12	0x3cbb4027	0.022857739
13	0x3ca87000	0.020561218
14	0xbe070454	-0.13185245
15	0x3e4ebdfb	0.2018966
16	0x3e6927f5	0.22769149
17	0x3e12214f	0.14270519
18	0x3e483584	0.19551665
19	0xbe482bcf	-0.19547962
20	0x3df3b508	0.11899763
21	0xbea68156	-0.3252055
22	0x3e47082d	0.19436713
23	0x3e2ba3e2	0.16761735
24	0x3e335709	0.1751367
25	0xbe6bf2f6	-0.23041901
26	0x3db63991	0.08897699
27	0x3e783147	0.24237548
28	0x3eab8ea1	0.33507255
29	0xbeb33874	-0.35004008
30	0xbe5b8254	-0.21436435
31	0x3db61965	0.08891562
32	0x3d260fd4	0.04054244
33	0x3e19d797	0.15023647
34	0x3c27d095	0.010242601
35	0xbe537f68	-0.2065407
36	0xbea1cb2f	-0.3160033
37	0xbe52e45d	-0.20594926
38	0x3e894f22	0.26818186
39	0xbd39f70d	-0.04540162
40	0x3c48edb4	0.012263704
41	0xbe1b747d	-0.15181156
42	0x3e982d97	0.29722282
43	0x3d8d05ca	0.0688587
44	0x3eab29bd	0.3343028
45	0xbe933f77	-0.28759357
46	0xbdad3cf8	-0.084588945
47	0xbe7c9b69	-0.2466866
48	0x3e3ebb6d	0.18626185
49	0xbe9a7cfb	-0.30173478
50	0xbe9b319f	-0.30311295
51	0xbd767bf2	-0.060176797
52	0x3e397487	0.18110858
53	0x3e37cda4	0.1794954
54	0xbe2de440	-0.16981602
55	0x3de8e61b	0.11372014
56	0xbd9237e2	-0.07139565
57	0x3ea95d77	0.3307912
58	0x3d621cd0	0.05520326
59	0xbe9506a7	-0.29106638
60	0x3d93d667	0.072186284
61	0x3e9b014f	0.30274436
62	0xbe8c87b7	-0.27447292
63	0xbcce3a58	-0.025174305
64	0x3e80da2d	0.25166455
65	0x3d1657b5	0.036704738
66	0xbe8b2077	-0.27173206
67	0xbe019d7c	-0.12657732
68	0x3d00430d	0.031313945
69	0x3e29475b	0.16531126
70	0xbe005531	-0.12532498
71	0x3e2aaf24	0.16668373
72	0x3e7edc59	0.24888743
73	0xbe0ff314	-0.1405757
74	0x3d87d0d2	0.06631626
75	0xbe91b129	-0.28455475
76	0xbd56fa06	-0.052484535
77	0xbdb7673d	-0.08955238
78	0xbe24b3ac	-0.16084164
79	0x3e85efcf	0.26159522
80	0xbdf1aacb	-0.11800154
81	0x3e2790a3	0.16363768
82	0xbdd896bd	-0.10575626
83	0xbe8cfcbb	-0.27536568
84	0xbe08f088	-0.13373005
85	0x3e677d65	0.22606428
86	0xbe706c88	-0.23478901
87	0xbea10228	-0.31446958
88	0x3ed02dbd	0.40659896
89	0x3c9edee6	0.019393396
90	0x3e87d743	0.2653142
91	0xbe3d9f21	-0.18517734
92	0x3d40ce4e	0.047071747
93	0x3e309dd7	0.17247711
94	0xbe3c1f4b	-0.18371312
95	0x3e16367b	0.1466922
96	0x3e0dfb52	0.13865402
97	0xbed0a211	-0.40748647
98	0xbe91482d	-0.28375378
99	0x3dae5165	0.085116185
100	0xbc86ab5b	-0.01643913
101	0x3d78c550	0.060735047
102	0xbe96d392	-0.2945829
103	0x3eb0b88e	0.34515804
104	0xbe424d6b	-0.18974845
105	0x3dbb8085	0.091553725
106	0x3cddb418	0.027063414
107	0xbe11f0b8	-0.14251983
108	0xbc661b9e	-0.01404467
109	0x3e1e3fe4	0.1545406
110	0xbd401816	-0.04689797
111	0x3d1afece	0.037840657
112	0x3d3eb6b3	0.046560954
113	0xbe6c5fc7	-0.23083411
114	0xbea127b8	-0.31475616
115	0xbd1ab94e	-0.037774377
116	0x3e1ad4ad	0.15120192
117	0x3e420823	0.18948416
118	0xbe999845	-0.29998985
119	0xbe24cc06	-0.16093454
120	0xbe5465ae	-0.20741913
121	0x3de27d5d	0.110590674
122	0xbdf7f17c	-0.12106606
123	0xbdcece61	-0.100979574
124	0xbeb95f0e	-0.36205333
125	0x3e8703e4	0.26370156
126	0xbd2d9236	-0.042375766
127	0x3e03d154	0.12872821
128	0xbe190006	-0.14941415
129	0x3ea02960	0.31281567
130	0xbd9ffc1b	-0.07811757
131	0x3dcb1050	0.09915221
132	0x3d03bbc9	0.032161508
133	0x3d1979b8	0.037469596
134	0xbea8b000	-0.32946777
135	0xbec8f06e	-0.39245933
136	0xbc8db113	-0.01729635
137	0x3dba7073	0.09103479
138	0xbeab09ec	-0.33406007
139	0xbe8d3c0d	-0.27584878
140	0xbea1ccfb	-0.316017
141	0x3da058c0	0.07829428
142	0x3c381ff3	0.011238086
143	0x3e15094e	0.1455433

conv2d_reparameterization_1_Independentconv2d_reparameterization_1_Normal/sample/conv2d_reparameterization_1_Normal/sample/mul;sequential_1/conv2d_reparameterization_1/StatefulPartitionedCall/conv2d_reparameterization_1_Independentconv2d_reparameterization_1_Normal/sample/conv2d_reparameterization_1_Normal/sample/mul f4 [1, 3, 3, 16, 32]
0	0x3d5e30df	0.054245826
1	0x3d8467e3	0.06465127
2	0x3d8e1cc0	0.069390774
3	0x3d64ecaf	0.05588978
4	0x3d833bff	0.06407928
5	0x3d7939bc	0.060846075
6	0x3d8c9b35	0.06865541
7	0x3d696f4d	0.05699091
8	0x3d3929d5	0.04520591
9	0x3d559516	0.052144133
10	0x3d7ad89a	0.061241724
11	0x3d59e8a2	0.05320037
12	0x3d7747a5	0.06037106
13	0x3d6dbbdf	0.058040496
14	0x3d7ab7fe	0.061210625
15	0x3d558245	0.052126188
16	0x3d54ee83	0.051985275
17	0x3d469c22	0.048488744
18	0x3d4a289a	0.049355127
19	0x3d6640de	0.056214206
20	0x3d6042d7	0.054751243
21	0x3d8f89ca	0.07008703
22	0x3d675d78	0.056485623
23	0x3d5d3697	0.05400714
24	0x3d82581f	0.06364464
25	0x3d4c75e2	0.04991711
26	0x3d6f0a99	0.058359716
27	0x3d60619e	0.054780595
28	0x3d71ac54	0.059002236
29	0x3d80bad1	0.062856324
30	0x3d5924a7	0.05301347
31	0x3d5d07fa	0.053962685
32	0x3d4b4960	0.049630523
33	0x3d9c1a79	0.07622237
34	0x3d9fefa1	0.078093775
35	0x3d968ed4	0.07351461
36	0x3d88074f	0.06642019
37	0x3daa0571	0.08301819
38	0x3da1f5d5	0.07908217
39	0x3da01cce	0.07817994
40	0x3d744ea2	0.059645303
41	0x3d8dcfef	0.06924426
42	0x3d9f17c1	0.077682026
43	0x3d92de86	0.07171349
44	0x3d7bf734	0.06151505
45	0x3d99e97b	0.07515236
46	0x3d98620b	0.07440575
47	0x3d814c35	0.063133635
48	0x3d80d18c	0.06289968
49	0x3d7dc4b2	0.06195516
50	0x3d679863	0.05654181
51	0x3da4078a	0.080092505
52	0x3d97f7d2	0.07420315
53	0x3d9d6151	0.07684577
54	0x3d8afd62	0.0678661
55	0x3d7e89da	0.062143184
56	0x3d9b66f3	0.075879954
57	0x3d80df3e	0.0629258
58	0x3d7d166a	0.061788954
59	0x3d85707a	0.06515594
60	0x3d9444db	0.07239696
61	0x3d8b30f3	0.06796446
62	0x3d71904c	0.058975503
63	0x3d9290ed	0.07156549
64	0x3d66320f	0.056200083
65	0x3d982b2b	0.07430109
66	0x3d8d0717	0.06886118
67	0x3d7f60be	0.06234812
68	0x3d7199a2	0.058984406
69	0x3da66ab6	0.08125822
70	0x3d9c2a37	0.07625239
71	0x3d89070c	0.06690797
72	0x3d7490d2	0.059708424
73	0x3d841824	0.06449917
74	0x3d73e1b6	0.059541427
75	0x3d823ede	0.06359647
76	0x3d8b4bf5	0.06801597
77	0x3d96f998	0.07371825
78	0x3d9b6d7a	0.0758924
79	0x3d72c687	0.05927136
80	0x3d73ceba	0.05952332
81	0x3d84f3c8	0.0649181
82	0x3d65e640	0.056127787
83	0x3d8332bf	0.064061634
84	0x3d856603	0.06513598
85	0x3d87b409	0.06626136
86	0x3d86faf4	0.06590834
87	0x3d56d00d	0.052444506
88	0x3d9da545	0.07697538
89	0x3d90c8ad	0.07069526
90	0x3d970090	0.07373154
91	0x3d911ba0	0.07085347
92	0x3d74d55e	0.059773795
93	0x3d8add84	0.06780532
94	0x3d684993	0.05671079
95	0x3d7b4efa	0.061354615
96	0x3d6d0828	0.057869107
97	0x3dc0dbdf	0.09416937
98	0x3db2bd96	0.08727567
99	0x3d86db82	0.065848365
100	0x3d8754e9	0.06607992
101	0x3db9a16c	0.09063992
102	0x3db8b33d	0.09018562
103	0x3d9a27d8	0.07527131
104	0x3d6054b5	0.054768283
105	0x3d8355b3	0.0641283
106	0x3d98d804	0.07463077
107	0x3d8b1f0b	0.0679303
108	0x3d77327d	0.060350884
109	0x3d97dec9	0.0741554
110	0x3d9f4089	0.07775981
111	0x3d62c83d	0.055366743
112	0x3d73cdc8	0.05952242
113	0x3d7df962	0.062005408
114	0x3d7bdc1c	0.06148921
115	0x3d86da85	0.06584648
116	0x3d8add00	0.06780434
117	0x3dc01f38	0.093809545
118	0x3d567949	0.05236176
119	0x3d821db2	0.0635332
120	0x3daa8998	0.08327025
121	0x3d606ef9	0.05479333
122	0x3d99914a	0.07498415
123	0x3d9ef4a8	0.07761508
124	0x3d8b5a92	0.06804384
125	0x3d8afff3	0.067871
126	0x3d894132	0.06701888
127	0x3d93e81b	0.07222005
128	0x3d4ffc60	0.050777793
129	0x3d85f108	0.06540114
130	0x3d856ca6	0.06514864
131	0x3d5344f9	0.05157945
132	0x3d83af1c	0.06429884
133	0x3d8940e7	0.06701832
134	0x3d92bbe0	0.071647406
135	0x3d684ad4	0.056711987
136	0x3d626360	0.055270553
137	0x3d7e8e7a	0.062147595
138	0x3d704da5	0.058667798
139	0x3d75e9c1	0.06003738
140	0x3d80f1de	0.062961325
141	0x3d67489f	0.05646574
142	0x3d771254	0.060320213
143	0x3d46eb28	0.048564106
144	0x3d554688	0.052069217
145	0x3d62b305	0.055346508
146	0x3d620567	0.055180933
147	0x3d63a7a2	0.05557979
148	0x3d4311d6	0.04762443
149	0x3d8b6e47	0.06808143
150	0x3d6f0533	0.058354568
151	0x3d6c2b3c	0.05765842
152	0x3d69de3a	0.057096697
153	0x3d6583f8	0.05603406
154	0x3d7c9b0a	0.061671294
155	0x3d861226	0.0654643
156	0x3d94fba7	0.072745614
157	0x3d875344	0.066076785
158	0x3d7a0db0	0.06104821
159	0x3d7a5085	0.061111946
160	0x3d7299ab	0.05922858
161	0x3d8cb4bf	0.06870412
162	0x3d99d4aa	0.075112656
163	0x3d7880f1	0.060669843
164	0x3d78fca6	0.06078782
165	0x3d9404d8	0.07227486
166	0x3dab573a	0.083662465
167	0x3d8724a8	0.065987885
168	0x3d4ed104	0.0504923
169	0x3d80a27e	0.06280993
170	0x3d9576e4	0.07298067
171	0x3d80e9fb	0.06294628
172	0x3d7a9e53	0.061186146
173	0x3d614adc	0.055003032
174	0x3d9565a2	0.072947755
175	0x3d610e14	0.054945067
176	0x3d595aa2	0.05306495
177	0x3d7310c3	0.059342157
178	0x3d6bf786	0.057609104
179	0x3d7985cf	0.060918625
180	0x3d81f7fa	0.06346126
181	0x3da6e27b	0.081486665
182	0x3d8544f7	0.065072946
183	0x3d62cb0e	0.05536943
184	0x3da0a1dc	0.07843372
185	0x3d897c28	0.06713134
186	0x3d7e8d16	0.06214627
187	0x3d8be634	0.06831017
188	0x3d80ef34	0.062956244
189	0x3d844a5d	0.06459496
190	0x3d77ba66	0.060480498
191	0x3d5e153f	0.05421948
192	0x3d6d5cd9	0.057949875
193	0x3d8cddf5	0.068782724
194	0x3d91fd0f	0.07128345
195	0x3d8d8baf	0.06911408
196	0x3d7c8f18	0.061659902
197	0x3d9659ff	0.07341384
198	0x3da58309	0.080816336
199	0x3d78da93	0.060755324
200	0x3d851dab	0.06499799
201	0x3d81743d	0.06320999
202	0x3d7bac5f	0.061443683
203	0x3d845b4f	0.06462728
204	0x3d8e7404	0.06955722
205	0x3d93ddc0	0.0722003
206	0x3d970d2e	0.07375561
207	0x3d8e250e	0.06940661
208	0x3d8bc869	0.068253346
209	0x3d824f6c	0.06362805
210	0x3d80829d	0.062749125
211	0x3d9b0474	0.07569209
212	0x3d80469f	0.0626347
213	0x3d9412f8	0.072301805
214	0x3d817d36	0.0632271
215	0x3d7911c2	0.06080795
216	0x3d8749a5	0.066058435
217	0x3d67a8c4	0.05655743
218	0x3d823fe3	0.06359842
219	0x3d8a15eb	0.06742462
220	0x3d8627cf	0.06550562
221	0x3d8c859a	0.0686142
222	0x3d6b187f	0.05739641
223	0x3d9cee4b	0.07662638
224	0x3d4408dc	0.04786001
225	0x3d9c2566	0.07624321
226	0x3d89d280	0.06729603
227	0x3d931016	0.071808025
228	0x3d88f337	0.066870145
229	0x3da8706b	0.08224567
230	0x3db1da4a	0.086842135
231	0x3d9ef9bc	0.07762477
232	0x3d746322	0.059664853
233	0x3d944192	0.07239069
234	0x3d92cd94	0.07168117
235	0x3d7d4067	0.061828997
236	0x3d965e8f	0.07342254
237	0x3d8bb572	0.06821717
238	0x3d889412	0.06668867
239	0x3d810c10	0.06301129
240	0x3d82dd33	0.06389847
241	0x3d98567a	0.07438369
242	0x3d800067	0.06250077
243	0x3d8b2591	0.067942746
244	0x3d8792cd	0.06619797
245	0x3d7816a2	0.06056846
246	0x3d82034a	0.063482836
247	0x3d8c84a5	0.068612374
248	0x3d94cff5	0.07266227
249	0x3d85baf7	0.06529801
250	0x3da8b37d	0.0823736
251	0x3da48cb4	0.080346495
252	0x3d97eae1	0.074178465
253	0x3da60e26	0.08108167
254	0x3d765fd4	0.060149983
255	0x3d989593	0.07450404
